node {
  name: "global_step/Initializer/zeros"
  op: "Const"
  attr {
    key: "_class"
    value {
      list {
        s: "loc:@global_step"
      }
    }
  }
  attr {
    key: "_output_shapes"
    value {
      list {
        shape {
        }
      }
    }
  }
  attr {
    key: "dtype"
    value {
      type: DT_INT64
    }
  }
  attr {
    key: "value"
    value {
      tensor {
        dtype: DT_INT64
        tensor_shape {
        }
        int64_val: 0
      }
    }
  }
}
node {
  name: "global_step"
  op: "VariableV2"
  attr {
    key: "_class"
    value {
      list {
        s: "loc:@global_step"
      }
    }
  }
  attr {
    key: "_output_shapes"
    value {
      list {
        shape {
        }
      }
    }
  }
  attr {
    key: "container"
    value {
      s: ""
    }
  }
  attr {
    key: "dtype"
    value {
      type: DT_INT64
    }
  }
  attr {
    key: "shape"
    value {
      shape {
      }
    }
  }
  attr {
    key: "shared_name"
    value {
      s: ""
    }
  }
}
node {
  name: "global_step/Assign"
  op: "Assign"
  input: "global_step"
  input: "global_step/Initializer/zeros"
  attr {
    key: "T"
    value {
      type: DT_INT64
    }
  }
  attr {
    key: "_class"
    value {
      list {
        s: "loc:@global_step"
      }
    }
  }
  attr {
    key: "_output_shapes"
    value {
      list {
        shape {
        }
      }
    }
  }
  attr {
    key: "use_locking"
    value {
      b: true
    }
  }
  attr {
    key: "validate_shape"
    value {
      b: true
    }
  }
}
node {
  name: "global_step/read"
  op: "Identity"
  input: "global_step"
  attr {
    key: "T"
    value {
      type: DT_INT64
    }
  }
  attr {
    key: "_class"
    value {
      list {
        s: "loc:@global_step"
      }
    }
  }
  attr {
    key: "_output_shapes"
    value {
      list {
        shape {
        }
      }
    }
  }
}
node {
  name: "global_step/IsVariableInitialized"
  op: "IsVariableInitialized"
  input: "global_step"
  attr {
    key: "_class"
    value {
      list {
        s: "loc:@global_step"
      }
    }
  }
  attr {
    key: "_output_shapes"
    value {
      list {
        shape {
        }
      }
    }
  }
  attr {
    key: "dtype"
    value {
      type: DT_INT64
    }
  }
}
node {
  name: "global_step/cond/Switch"
  op: "Switch"
  input: "global_step/IsVariableInitialized"
  input: "global_step/IsVariableInitialized"
  attr {
    key: "T"
    value {
      type: DT_BOOL
    }
  }
  attr {
    key: "_output_shapes"
    value {
      list {
        shape {
        }
        shape {
        }
      }
    }
  }
}
node {
  name: "global_step/cond/switch_t"
  op: "Identity"
  input: "global_step/cond/Switch:1"
  attr {
    key: "T"
    value {
      type: DT_BOOL
    }
  }
  attr {
    key: "_output_shapes"
    value {
      list {
        shape {
        }
      }
    }
  }
}
node {
  name: "global_step/cond/switch_f"
  op: "Identity"
  input: "global_step/cond/Switch"
  attr {
    key: "T"
    value {
      type: DT_BOOL
    }
  }
  attr {
    key: "_output_shapes"
    value {
      list {
        shape {
        }
      }
    }
  }
}
node {
  name: "global_step/cond/pred_id"
  op: "Identity"
  input: "global_step/IsVariableInitialized"
  attr {
    key: "T"
    value {
      type: DT_BOOL
    }
  }
  attr {
    key: "_output_shapes"
    value {
      list {
        shape {
        }
      }
    }
  }
}
node {
  name: "global_step/cond/read"
  op: "Identity"
  input: "global_step/cond/read/Switch:1"
  attr {
    key: "T"
    value {
      type: DT_INT64
    }
  }
  attr {
    key: "_output_shapes"
    value {
      list {
        shape {
        }
      }
    }
  }
}
node {
  name: "global_step/cond/read/Switch"
  op: "RefSwitch"
  input: "global_step"
  input: "global_step/cond/pred_id"
  attr {
    key: "T"
    value {
      type: DT_INT64
    }
  }
  attr {
    key: "_class"
    value {
      list {
        s: "loc:@global_step"
      }
    }
  }
  attr {
    key: "_output_shapes"
    value {
      list {
        shape {
        }
        shape {
        }
      }
    }
  }
}
node {
  name: "global_step/cond/Switch_1"
  op: "Switch"
  input: "global_step/Initializer/zeros"
  input: "global_step/cond/pred_id"
  attr {
    key: "T"
    value {
      type: DT_INT64
    }
  }
  attr {
    key: "_class"
    value {
      list {
        s: "loc:@global_step"
      }
    }
  }
  attr {
    key: "_output_shapes"
    value {
      list {
        shape {
        }
        shape {
        }
      }
    }
  }
}
node {
  name: "global_step/cond/Merge"
  op: "Merge"
  input: "global_step/cond/Switch_1"
  input: "global_step/cond/read"
  attr {
    key: "N"
    value {
      i: 2
    }
  }
  attr {
    key: "T"
    value {
      type: DT_INT64
    }
  }
  attr {
    key: "_output_shapes"
    value {
      list {
        shape {
        }
        shape {
        }
      }
    }
  }
}
node {
  name: "global_step/add/y"
  op: "Const"
  attr {
    key: "_output_shapes"
    value {
      list {
        shape {
        }
      }
    }
  }
  attr {
    key: "dtype"
    value {
      type: DT_INT64
    }
  }
  attr {
    key: "value"
    value {
      tensor {
        dtype: DT_INT64
        tensor_shape {
        }
        int64_val: 0
      }
    }
  }
}
node {
  name: "global_step/add"
  op: "Add"
  input: "global_step/cond/Merge"
  input: "global_step/add/y"
  attr {
    key: "T"
    value {
      type: DT_INT64
    }
  }
  attr {
    key: "_output_shapes"
    value {
      list {
        shape {
        }
      }
    }
  }
}
node {
  name: "Const"
  op: "Const"
  device: "/device:CPU:0"
  attr {
    key: "_output_shapes"
    value {
      list {
        shape {
          dim {
            size: 50
          }
        }
      }
    }
  }
  attr {
    key: "dtype"
    value {
      type: DT_STRING
    }
  }
  attr {
    key: "value"
    value {
      tensor {
        dtype: DT_STRING
        tensor_shape {
          dim {
            size: 50
          }
        }
        string_val: "Bras"
        string_val: "Ties"
        string_val: "Tops"
        string_val: "Jeans"
        string_val: "Polos"
        string_val: "Rings"
        string_val: "Socks"
        string_val: "Skirts"
        string_val: "Watches"
        string_val: "Leggings"
        string_val: "Sweaters"
        string_val: "T-Shirts"
        string_val: "Necklaces"
        string_val: "Swim Tops"
        string_val: "Underwear"
        string_val: "Fragrances"
        string_val: "Range Hoods"
        string_val: "Basins/Sinks"
        string_val: "Button-Downs"
        string_val: "Slacks/Pants"
        string_val: "Swim Bottoms"
        string_val: "Jackets/Coats"
        string_val: "Office Chairs"
        string_val: "Gloves/Mittens"
        string_val: "Semi-Brim Hats"
        string_val: "Dresses & Gowns"
        string_val: "Pendants & Charms"
        string_val: "Blazers/Suit Coats"
        string_val: "Swim Variety Packs"
        string_val: "Bracelets & Anklets"
        string_val: "One-Piece Swimsuits"
        string_val: "Protective Footwear"
        string_val: "Faucets/Taps/Handles"
        string_val: "Bedding Variety Packs"
        string_val: "Earrings & Ear Jewelry"
        string_val: "Protective/Active Tops"
        string_val: "Cardigans/Kimonos/Wraps"
        string_val: "Everyday/Dress Footwear"
        string_val: "Protective/Active Pants"
        string_val: "Protective/Active Vests"
        string_val: "Tableware Variety Packs"
        string_val: "Active/Athletic Footwear"
        string_val: "Protective/Active Shorts"
        string_val: "Specialty Sport Footwear"
        string_val: "Hair Cleaning & Treatments"
        string_val: "Business/Formal Dress Suits"
        string_val: "Sweatshirts/Fleece Pullovers"
        string_val: "Clothing Sets & Variety Packs"
        string_val: "Protective/Active Button-Downs"
        string_val: "Vitamins, Minerals, & Dietary Supplements"
      }
    }
  }
}
node {
  name: "string_to_index/Size"
  op: "Const"
  device: "/device:CPU:0"
  attr {
    key: "_output_shapes"
    value {
      list {
        shape {
        }
      }
    }
  }
  attr {
    key: "dtype"
    value {
      type: DT_INT32
    }
  }
  attr {
    key: "value"
    value {
      tensor {
        dtype: DT_INT32
        tensor_shape {
        }
        int_val: 50
      }
    }
  }
}
node {
  name: "string_to_index/range/start"
  op: "Const"
  device: "/device:CPU:0"
  attr {
    key: "_output_shapes"
    value {
      list {
        shape {
        }
      }
    }
  }
  attr {
    key: "dtype"
    value {
      type: DT_INT32
    }
  }
  attr {
    key: "value"
    value {
      tensor {
        dtype: DT_INT32
        tensor_shape {
        }
        int_val: 0
      }
    }
  }
}
node {
  name: "string_to_index/range/delta"
  op: "Const"
  device: "/device:CPU:0"
  attr {
    key: "_output_shapes"
    value {
      list {
        shape {
        }
      }
    }
  }
  attr {
    key: "dtype"
    value {
      type: DT_INT32
    }
  }
  attr {
    key: "value"
    value {
      tensor {
        dtype: DT_INT32
        tensor_shape {
        }
        int_val: 1
      }
    }
  }
}
node {
  name: "string_to_index/range"
  op: "Range"
  input: "string_to_index/range/start"
  input: "string_to_index/Size"
  input: "string_to_index/range/delta"
  device: "/device:CPU:0"
  attr {
    key: "Tidx"
    value {
      type: DT_INT32
    }
  }
  attr {
    key: "_output_shapes"
    value {
      list {
        shape {
          dim {
            size: 50
          }
        }
      }
    }
  }
}
node {
  name: "string_to_index/ToInt64"
  op: "Cast"
  input: "string_to_index/range"
  device: "/device:CPU:0"
  attr {
    key: "DstT"
    value {
      type: DT_INT64
    }
  }
  attr {
    key: "SrcT"
    value {
      type: DT_INT32
    }
  }
  attr {
    key: "Truncate"
    value {
      b: false
    }
  }
  attr {
    key: "_output_shapes"
    value {
      list {
        shape {
          dim {
            size: 50
          }
        }
      }
    }
  }
}
node {
  name: "string_to_index/hash_table/Const"
  op: "Const"
  device: "/device:CPU:0"
  attr {
    key: "_output_shapes"
    value {
      list {
        shape {
        }
      }
    }
  }
  attr {
    key: "dtype"
    value {
      type: DT_INT64
    }
  }
  attr {
    key: "value"
    value {
      tensor {
        dtype: DT_INT64
        tensor_shape {
        }
        int64_val: -1
      }
    }
  }
}
node {
  name: "string_to_index/hash_table"
  op: "HashTableV2"
  device: "/device:CPU:0"
  attr {
    key: "_output_shapes"
    value {
      list {
        shape {
        }
      }
    }
  }
  attr {
    key: "container"
    value {
      s: ""
    }
  }
  attr {
    key: "key_dtype"
    value {
      type: DT_STRING
    }
  }
  attr {
    key: "shared_name"
    value {
      s: ""
    }
  }
  attr {
    key: "use_node_name_sharing"
    value {
      b: false
    }
  }
  attr {
    key: "value_dtype"
    value {
      type: DT_INT64
    }
  }
}
node {
  name: "string_to_index/hash_table/table_init"
  op: "LookupTableImportV2"
  input: "string_to_index/hash_table"
  input: "Const"
  input: "string_to_index/ToInt64"
  device: "/device:CPU:0"
  attr {
    key: "Tin"
    value {
      type: DT_STRING
    }
  }
  attr {
    key: "Tout"
    value {
      type: DT_INT64
    }
  }
}
node {
  name: "filenames"
  op: "Const"
  device: "/device:CPU:0"
  attr {
    key: "_output_shapes"
    value {
      list {
        shape {
        }
      }
    }
  }
  attr {
    key: "dtype"
    value {
      type: DT_STRING
    }
  }
  attr {
    key: "value"
    value {
      tensor {
        dtype: DT_STRING
        tensor_shape {
        }
        string_val: "gs://project-sample/dataset1_data_train.csv"
      }
    }
  }
}
node {
  name: "compression_type"
  op: "Const"
  device: "/device:CPU:0"
  attr {
    key: "_output_shapes"
    value {
      list {
        shape {
        }
      }
    }
  }
  attr {
    key: "dtype"
    value {
      type: DT_STRING
    }
  }
  attr {
    key: "value"
    value {
      tensor {
        dtype: DT_STRING
        tensor_shape {
        }
        string_val: ""
      }
    }
  }
}
node {
  name: "buffer_size"
  op: "Const"
  device: "/device:CPU:0"
  attr {
    key: "_output_shapes"
    value {
      list {
        shape {
        }
      }
    }
  }
  attr {
    key: "dtype"
    value {
      type: DT_INT64
    }
  }
  attr {
    key: "value"
    value {
      tensor {
        dtype: DT_INT64
        tensor_shape {
        }
        int64_val: 262144
      }
    }
  }
}
node {
  name: "count"
  op: "Const"
  device: "/device:CPU:0"
  attr {
    key: "_output_shapes"
    value {
      list {
        shape {
        }
      }
    }
  }
  attr {
    key: "dtype"
    value {
      type: DT_INT64
    }
  }
  attr {
    key: "value"
    value {
      tensor {
        dtype: DT_INT64
        tensor_shape {
        }
        int64_val: 1
      }
    }
  }
}
node {
  name: "buffer_size_1"
  op: "Const"
  device: "/device:CPU:0"
  attr {
    key: "_output_shapes"
    value {
      list {
        shape {
        }
      }
    }
  }
  attr {
    key: "dtype"
    value {
      type: DT_INT64
    }
  }
  attr {
    key: "value"
    value {
      tensor {
        dtype: DT_INT64
        tensor_shape {
        }
        int64_val: 100
      }
    }
  }
}
node {
  name: "seed"
  op: "Const"
  device: "/device:CPU:0"
  attr {
    key: "_output_shapes"
    value {
      list {
        shape {
        }
      }
    }
  }
  attr {
    key: "dtype"
    value {
      type: DT_INT64
    }
  }
  attr {
    key: "value"
    value {
      tensor {
        dtype: DT_INT64
        tensor_shape {
        }
        int64_val: 0
      }
    }
  }
}
node {
  name: "seed2"
  op: "Const"
  device: "/device:CPU:0"
  attr {
    key: "_output_shapes"
    value {
      list {
        shape {
        }
      }
    }
  }
  attr {
    key: "dtype"
    value {
      type: DT_INT64
    }
  }
  attr {
    key: "value"
    value {
      tensor {
        dtype: DT_INT64
        tensor_shape {
        }
        int64_val: 0
      }
    }
  }
}
node {
  name: "count_1"
  op: "Const"
  device: "/device:CPU:0"
  attr {
    key: "_output_shapes"
    value {
      list {
        shape {
        }
      }
    }
  }
  attr {
    key: "dtype"
    value {
      type: DT_INT64
    }
  }
  attr {
    key: "value"
    value {
      tensor {
        dtype: DT_INT64
        tensor_shape {
        }
        int64_val: 10
      }
    }
  }
}
node {
  name: "batch_size"
  op: "Const"
  device: "/device:CPU:0"
  attr {
    key: "_output_shapes"
    value {
      list {
        shape {
        }
      }
    }
  }
  attr {
    key: "dtype"
    value {
      type: DT_INT64
    }
  }
  attr {
    key: "value"
    value {
      tensor {
        dtype: DT_INT64
        tensor_shape {
        }
        int64_val: 10
      }
    }
  }
}
node {
  name: "drop_remainder"
  op: "Const"
  device: "/device:CPU:0"
  attr {
    key: "_output_shapes"
    value {
      list {
        shape {
        }
      }
    }
  }
  attr {
    key: "dtype"
    value {
      type: DT_BOOL
    }
  }
  attr {
    key: "value"
    value {
      tensor {
        dtype: DT_BOOL
        tensor_shape {
        }
        bool_val: false
      }
    }
  }
}
node {
  name: "optimizations"
  op: "Const"
  attr {
    key: "_output_shapes"
    value {
      list {
        shape {
          dim {
            size: 3
          }
        }
      }
    }
  }
  attr {
    key: "dtype"
    value {
      type: DT_STRING
    }
  }
  attr {
    key: "value"
    value {
      tensor {
        dtype: DT_STRING
        tensor_shape {
          dim {
            size: 3
          }
        }
        string_val: "map_and_batch_fusion"
        string_val: "noop_elimination"
        string_val: "shuffle_and_repeat_fusion"
      }
    }
  }
}
node {
  name: "IteratorV2"
  op: "IteratorV2"
  attr {
    key: "_output_shapes"
    value {
      list {
        shape {
        }
      }
    }
  }
  attr {
    key: "container"
    value {
      s: ""
    }
  }
  attr {
    key: "output_shapes"
    value {
      list {
        shape {
          dim {
            size: -1
          }
          dim {
            size: 224
          }
          dim {
            size: 224
          }
          dim {
            size: 3
          }
        }
        shape {
          dim {
            size: -1
          }
          dim {
            size: 50
          }
        }
      }
    }
  }
  attr {
    key: "output_types"
    value {
      list {
        type: DT_FLOAT
        type: DT_FLOAT
      }
    }
  }
  attr {
    key: "shared_name"
    value {
      s: ""
    }
  }
}
node {
  name: "TextLineDataset"
  op: "TextLineDataset"
  input: "filenames"
  input: "compression_type"
  input: "buffer_size"
  attr {
    key: "_class"
    value {
      list {
        s: "loc:@IteratorV2"
      }
    }
  }
  attr {
    key: "_output_shapes"
    value {
      list {
        shape {
        }
      }
    }
  }
}
node {
  name: "SkipDataset"
  op: "SkipDataset"
  input: "TextLineDataset"
  input: "count"
  attr {
    key: "_class"
    value {
      list {
        s: "loc:@IteratorV2"
      }
    }
  }
  attr {
    key: "_output_shapes"
    value {
      list {
        shape {
        }
      }
    }
  }
  attr {
    key: "output_shapes"
    value {
      list {
        shape {
        }
      }
    }
  }
  attr {
    key: "output_types"
    value {
      list {
        type: DT_STRING
      }
    }
  }
}
node {
  name: "MapDataset"
  op: "MapDataset"
  input: "SkipDataset"
  attr {
    key: "Targuments"
    value {
      list {
      }
    }
  }
  attr {
    key: "_class"
    value {
      list {
        s: "loc:@IteratorV2"
      }
    }
  }
  attr {
    key: "_output_shapes"
    value {
      list {
        shape {
        }
      }
    }
  }
  attr {
    key: "f"
    value {
      func {
        name: "Dataset_map_decode_csv_214"
      }
    }
  }
  attr {
    key: "output_shapes"
    value {
      list {
        shape {
        }
        shape {
        }
        shape {
        }
        shape {
        }
      }
    }
  }
  attr {
    key: "output_types"
    value {
      list {
        type: DT_STRING
        type: DT_STRING
        type: DT_STRING
        type: DT_STRING
      }
    }
  }
  attr {
    key: "preserve_cardinality"
    value {
      b: false
    }
  }
  attr {
    key: "use_inter_op_parallelism"
    value {
      b: true
    }
  }
}
node {
  name: "MapDataset_1"
  op: "MapDataset"
  input: "MapDataset"
  input: "string_to_index/hash_table"
  input: "string_to_index/hash_table/Const"
  attr {
    key: "Targuments"
    value {
      list {
        type: DT_RESOURCE
        type: DT_INT64
      }
    }
  }
  attr {
    key: "_class"
    value {
      list {
        s: "loc:@IteratorV2"
      }
    }
  }
  attr {
    key: "_output_shapes"
    value {
      list {
        shape {
        }
      }
    }
  }
  attr {
    key: "f"
    value {
      func {
        name: "Dataset_map_read_and_preprocess_226"
      }
    }
  }
  attr {
    key: "output_shapes"
    value {
      list {
        shape {
          dim {
            size: 224
          }
          dim {
            size: 224
          }
          dim {
            size: 3
          }
        }
        shape {
          dim {
            size: 50
          }
        }
      }
    }
  }
  attr {
    key: "output_types"
    value {
      list {
        type: DT_FLOAT
        type: DT_FLOAT
      }
    }
  }
  attr {
    key: "preserve_cardinality"
    value {
      b: false
    }
  }
  attr {
    key: "use_inter_op_parallelism"
    value {
      b: true
    }
  }
}
node {
  name: "ShuffleDataset"
  op: "ShuffleDataset"
  input: "MapDataset_1"
  input: "buffer_size_1"
  input: "seed"
  input: "seed2"
  attr {
    key: "_class"
    value {
      list {
        s: "loc:@IteratorV2"
      }
    }
  }
  attr {
    key: "_output_shapes"
    value {
      list {
        shape {
        }
      }
    }
  }
  attr {
    key: "output_shapes"
    value {
      list {
        shape {
          dim {
            size: 224
          }
          dim {
            size: 224
          }
          dim {
            size: 3
          }
        }
        shape {
          dim {
            size: 50
          }
        }
      }
    }
  }
  attr {
    key: "output_types"
    value {
      list {
        type: DT_FLOAT
        type: DT_FLOAT
      }
    }
  }
  attr {
    key: "reshuffle_each_iteration"
    value {
      b: true
    }
  }
}
node {
  name: "RepeatDataset"
  op: "RepeatDataset"
  input: "ShuffleDataset"
  input: "count_1"
  attr {
    key: "_class"
    value {
      list {
        s: "loc:@IteratorV2"
      }
    }
  }
  attr {
    key: "_output_shapes"
    value {
      list {
        shape {
        }
      }
    }
  }
  attr {
    key: "output_shapes"
    value {
      list {
        shape {
          dim {
            size: 224
          }
          dim {
            size: 224
          }
          dim {
            size: 3
          }
        }
        shape {
          dim {
            size: 50
          }
        }
      }
    }
  }
  attr {
    key: "output_types"
    value {
      list {
        type: DT_FLOAT
        type: DT_FLOAT
      }
    }
  }
}
node {
  name: "BatchDatasetV2"
  op: "BatchDatasetV2"
  input: "RepeatDataset"
  input: "batch_size"
  input: "drop_remainder"
  attr {
    key: "_class"
    value {
      list {
        s: "loc:@IteratorV2"
      }
    }
  }
  attr {
    key: "_output_shapes"
    value {
      list {
        shape {
        }
      }
    }
  }
  attr {
    key: "output_shapes"
    value {
      list {
        shape {
          dim {
            size: -1
          }
          dim {
            size: 224
          }
          dim {
            size: 224
          }
          dim {
            size: 3
          }
        }
        shape {
          dim {
            size: -1
          }
          dim {
            size: 50
          }
        }
      }
    }
  }
  attr {
    key: "output_types"
    value {
      list {
        type: DT_FLOAT
        type: DT_FLOAT
      }
    }
  }
}
node {
  name: "OptimizeDataset"
  op: "OptimizeDataset"
  input: "BatchDatasetV2"
  input: "optimizations"
  attr {
    key: "_class"
    value {
      list {
        s: "loc:@IteratorV2"
      }
    }
  }
  attr {
    key: "_output_shapes"
    value {
      list {
        shape {
        }
      }
    }
  }
  attr {
    key: "output_shapes"
    value {
      list {
        shape {
          dim {
            size: -1
          }
          dim {
            size: 224
          }
          dim {
            size: 224
          }
          dim {
            size: 3
          }
        }
        shape {
          dim {
            size: -1
          }
          dim {
            size: 50
          }
        }
      }
    }
  }
  attr {
    key: "output_types"
    value {
      list {
        type: DT_FLOAT
        type: DT_FLOAT
      }
    }
  }
}
node {
  name: "ModelDataset"
  op: "ModelDataset"
  input: "OptimizeDataset"
  attr {
    key: "_class"
    value {
      list {
        s: "loc:@IteratorV2"
      }
    }
  }
  attr {
    key: "_output_shapes"
    value {
      list {
        shape {
        }
      }
    }
  }
  attr {
    key: "output_shapes"
    value {
      list {
        shape {
          dim {
            size: -1
          }
          dim {
            size: 224
          }
          dim {
            size: 224
          }
          dim {
            size: 3
          }
        }
        shape {
          dim {
            size: -1
          }
          dim {
            size: 50
          }
        }
      }
    }
  }
  attr {
    key: "output_types"
    value {
      list {
        type: DT_FLOAT
        type: DT_FLOAT
      }
    }
  }
}
node {
  name: "MakeIterator"
  op: "MakeIterator"
  input: "ModelDataset"
  input: "IteratorV2"
  attr {
    key: "_class"
    value {
      list {
        s: "loc:@IteratorV2"
      }
    }
  }
}
node {
  name: "IteratorToStringHandle"
  op: "IteratorToStringHandle"
  input: "IteratorV2"
  attr {
    key: "_output_shapes"
    value {
      list {
        shape {
        }
      }
    }
  }
}
node {
  name: "IteratorGetNext"
  op: "IteratorGetNext"
  input: "IteratorV2"
  attr {
    key: "_output_shapes"
    value {
      list {
        shape {
          dim {
            size: -1
          }
          dim {
            size: 224
          }
          dim {
            size: 224
          }
          dim {
            size: 3
          }
        }
        shape {
          dim {
            size: -1
          }
          dim {
            size: 50
          }
        }
      }
    }
  }
  attr {
    key: "output_shapes"
    value {
      list {
        shape {
          dim {
            size: -1
          }
          dim {
            size: 224
          }
          dim {
            size: 224
          }
          dim {
            size: 3
          }
        }
        shape {
          dim {
            size: -1
          }
          dim {
            size: 50
          }
        }
      }
    }
  }
  attr {
    key: "output_types"
    value {
      list {
        type: DT_FLOAT
        type: DT_FLOAT
      }
    }
  }
}
node {
  name: "conv2d/kernel/Initializer/random_uniform/shape"
  op: "Const"
  attr {
    key: "_class"
    value {
      list {
        s: "loc:@conv2d/kernel"
      }
    }
  }
  attr {
    key: "_output_shapes"
    value {
      list {
        shape {
          dim {
            size: 4
          }
        }
      }
    }
  }
  attr {
    key: "dtype"
    value {
      type: DT_INT32
    }
  }
  attr {
    key: "value"
    value {
      tensor {
        dtype: DT_INT32
        tensor_shape {
          dim {
            size: 4
          }
        }
        tensor_content: "\024\000\000\000\024\000\000\000\003\000\000\000\003\000\000\000"
      }
    }
  }
}
node {
  name: "conv2d/kernel/Initializer/random_uniform/min"
  op: "Const"
  attr {
    key: "_class"
    value {
      list {
        s: "loc:@conv2d/kernel"
      }
    }
  }
  attr {
    key: "_output_shapes"
    value {
      list {
        shape {
        }
      }
    }
  }
  attr {
    key: "dtype"
    value {
      type: DT_FLOAT
    }
  }
  attr {
    key: "value"
    value {
      tensor {
        dtype: DT_FLOAT
        tensor_shape {
        }
        float_val: -0.05000000074505806
      }
    }
  }
}
node {
  name: "conv2d/kernel/Initializer/random_uniform/max"
  op: "Const"
  attr {
    key: "_class"
    value {
      list {
        s: "loc:@conv2d/kernel"
      }
    }
  }
  attr {
    key: "_output_shapes"
    value {
      list {
        shape {
        }
      }
    }
  }
  attr {
    key: "dtype"
    value {
      type: DT_FLOAT
    }
  }
  attr {
    key: "value"
    value {
      tensor {
        dtype: DT_FLOAT
        tensor_shape {
        }
        float_val: 0.05000000074505806
      }
    }
  }
}
node {
  name: "conv2d/kernel/Initializer/random_uniform/RandomUniform"
  op: "RandomUniform"
  input: "conv2d/kernel/Initializer/random_uniform/shape"
  attr {
    key: "T"
    value {
      type: DT_INT32
    }
  }
  attr {
    key: "_class"
    value {
      list {
        s: "loc:@conv2d/kernel"
      }
    }
  }
  attr {
    key: "_output_shapes"
    value {
      list {
        shape {
          dim {
            size: 20
          }
          dim {
            size: 20
          }
          dim {
            size: 3
          }
          dim {
            size: 3
          }
        }
      }
    }
  }
  attr {
    key: "dtype"
    value {
      type: DT_FLOAT
    }
  }
  attr {
    key: "seed"
    value {
      i: 0
    }
  }
  attr {
    key: "seed2"
    value {
      i: 0
    }
  }
}
node {
  name: "conv2d/kernel/Initializer/random_uniform/sub"
  op: "Sub"
  input: "conv2d/kernel/Initializer/random_uniform/max"
  input: "conv2d/kernel/Initializer/random_uniform/min"
  attr {
    key: "T"
    value {
      type: DT_FLOAT
    }
  }
  attr {
    key: "_class"
    value {
      list {
        s: "loc:@conv2d/kernel"
      }
    }
  }
  attr {
    key: "_output_shapes"
    value {
      list {
        shape {
        }
      }
    }
  }
}
node {
  name: "conv2d/kernel/Initializer/random_uniform/mul"
  op: "Mul"
  input: "conv2d/kernel/Initializer/random_uniform/RandomUniform"
  input: "conv2d/kernel/Initializer/random_uniform/sub"
  attr {
    key: "T"
    value {
      type: DT_FLOAT
    }
  }
  attr {
    key: "_class"
    value {
      list {
        s: "loc:@conv2d/kernel"
      }
    }
  }
  attr {
    key: "_output_shapes"
    value {
      list {
        shape {
          dim {
            size: 20
          }
          dim {
            size: 20
          }
          dim {
            size: 3
          }
          dim {
            size: 3
          }
        }
      }
    }
  }
}
node {
  name: "conv2d/kernel/Initializer/random_uniform"
  op: "Add"
  input: "conv2d/kernel/Initializer/random_uniform/mul"
  input: "conv2d/kernel/Initializer/random_uniform/min"
  attr {
    key: "T"
    value {
      type: DT_FLOAT
    }
  }
  attr {
    key: "_class"
    value {
      list {
        s: "loc:@conv2d/kernel"
      }
    }
  }
  attr {
    key: "_output_shapes"
    value {
      list {
        shape {
          dim {
            size: 20
          }
          dim {
            size: 20
          }
          dim {
            size: 3
          }
          dim {
            size: 3
          }
        }
      }
    }
  }
}
node {
  name: "conv2d/kernel"
  op: "VarHandleOp"
  attr {
    key: "_class"
    value {
      list {
        s: "loc:@conv2d/kernel"
      }
    }
  }
  attr {
    key: "_output_shapes"
    value {
      list {
        shape {
        }
      }
    }
  }
  attr {
    key: "container"
    value {
      s: ""
    }
  }
  attr {
    key: "dtype"
    value {
      type: DT_FLOAT
    }
  }
  attr {
    key: "shape"
    value {
      shape {
        dim {
          size: 20
        }
        dim {
          size: 20
        }
        dim {
          size: 3
        }
        dim {
          size: 3
        }
      }
    }
  }
  attr {
    key: "shared_name"
    value {
      s: "conv2d/kernel"
    }
  }
}
node {
  name: "conv2d/kernel/IsInitialized/VarIsInitializedOp"
  op: "VarIsInitializedOp"
  input: "conv2d/kernel"
  attr {
    key: "_output_shapes"
    value {
      list {
        shape {
        }
      }
    }
  }
}
node {
  name: "conv2d/kernel/Assign"
  op: "AssignVariableOp"
  input: "conv2d/kernel"
  input: "conv2d/kernel/Initializer/random_uniform"
  attr {
    key: "_class"
    value {
      list {
        s: "loc:@conv2d/kernel"
      }
    }
  }
  attr {
    key: "dtype"
    value {
      type: DT_FLOAT
    }
  }
}
node {
  name: "conv2d/kernel/Read/ReadVariableOp"
  op: "ReadVariableOp"
  input: "conv2d/kernel"
  attr {
    key: "_class"
    value {
      list {
        s: "loc:@conv2d/kernel"
      }
    }
  }
  attr {
    key: "_output_shapes"
    value {
      list {
        shape {
          dim {
            size: 20
          }
          dim {
            size: 20
          }
          dim {
            size: 3
          }
          dim {
            size: 3
          }
        }
      }
    }
  }
  attr {
    key: "dtype"
    value {
      type: DT_FLOAT
    }
  }
}
node {
  name: "conv2d/bias/Initializer/zeros"
  op: "Const"
  attr {
    key: "_class"
    value {
      list {
        s: "loc:@conv2d/bias"
      }
    }
  }
  attr {
    key: "_output_shapes"
    value {
      list {
        shape {
          dim {
            size: 3
          }
        }
      }
    }
  }
  attr {
    key: "dtype"
    value {
      type: DT_FLOAT
    }
  }
  attr {
    key: "value"
    value {
      tensor {
        dtype: DT_FLOAT
        tensor_shape {
          dim {
            size: 3
          }
        }
        float_val: 0.0
      }
    }
  }
}
node {
  name: "conv2d/bias"
  op: "VarHandleOp"
  attr {
    key: "_class"
    value {
      list {
        s: "loc:@conv2d/bias"
      }
    }
  }
  attr {
    key: "_output_shapes"
    value {
      list {
        shape {
        }
      }
    }
  }
  attr {
    key: "container"
    value {
      s: ""
    }
  }
  attr {
    key: "dtype"
    value {
      type: DT_FLOAT
    }
  }
  attr {
    key: "shape"
    value {
      shape {
        dim {
          size: 3
        }
      }
    }
  }
  attr {
    key: "shared_name"
    value {
      s: "conv2d/bias"
    }
  }
}
node {
  name: "conv2d/bias/IsInitialized/VarIsInitializedOp"
  op: "VarIsInitializedOp"
  input: "conv2d/bias"
  attr {
    key: "_output_shapes"
    value {
      list {
        shape {
        }
      }
    }
  }
}
node {
  name: "conv2d/bias/Assign"
  op: "AssignVariableOp"
  input: "conv2d/bias"
  input: "conv2d/bias/Initializer/zeros"
  attr {
    key: "_class"
    value {
      list {
        s: "loc:@conv2d/bias"
      }
    }
  }
  attr {
    key: "dtype"
    value {
      type: DT_FLOAT
    }
  }
}
node {
  name: "conv2d/bias/Read/ReadVariableOp"
  op: "ReadVariableOp"
  input: "conv2d/bias"
  attr {
    key: "_class"
    value {
      list {
        s: "loc:@conv2d/bias"
      }
    }
  }
  attr {
    key: "_output_shapes"
    value {
      list {
        shape {
          dim {
            size: 3
          }
        }
      }
    }
  }
  attr {
    key: "dtype"
    value {
      type: DT_FLOAT
    }
  }
}
node {
  name: "conv2d/dilation_rate"
  op: "Const"
  attr {
    key: "_output_shapes"
    value {
      list {
        shape {
          dim {
            size: 2
          }
        }
      }
    }
  }
  attr {
    key: "dtype"
    value {
      type: DT_INT32
    }
  }
  attr {
    key: "value"
    value {
      tensor {
        dtype: DT_INT32
        tensor_shape {
          dim {
            size: 2
          }
        }
        tensor_content: "\001\000\000\000\001\000\000\000"
      }
    }
  }
}
node {
  name: "conv2d/Conv2D/ReadVariableOp"
  op: "ReadVariableOp"
  input: "conv2d/kernel"
  attr {
    key: "_output_shapes"
    value {
      list {
        shape {
          dim {
            size: 20
          }
          dim {
            size: 20
          }
          dim {
            size: 3
          }
          dim {
            size: 3
          }
        }
      }
    }
  }
  attr {
    key: "dtype"
    value {
      type: DT_FLOAT
    }
  }
}
node {
  name: "conv2d/Conv2D"
  op: "Conv2D"
  input: "IteratorGetNext"
  input: "conv2d/Conv2D/ReadVariableOp"
  attr {
    key: "T"
    value {
      type: DT_FLOAT
    }
  }
  attr {
    key: "_output_shapes"
    value {
      list {
        shape {
          dim {
            size: -1
          }
          dim {
            size: 224
          }
          dim {
            size: 224
          }
          dim {
            size: 3
          }
        }
      }
    }
  }
  attr {
    key: "data_format"
    value {
      s: "NHWC"
    }
  }
  attr {
    key: "dilations"
    value {
      list {
        i: 1
        i: 1
        i: 1
        i: 1
      }
    }
  }
  attr {
    key: "padding"
    value {
      s: "SAME"
    }
  }
  attr {
    key: "strides"
    value {
      list {
        i: 1
        i: 1
        i: 1
        i: 1
      }
    }
  }
  attr {
    key: "use_cudnn_on_gpu"
    value {
      b: true
    }
  }
}
node {
  name: "conv2d/BiasAdd/ReadVariableOp"
  op: "ReadVariableOp"
  input: "conv2d/bias"
  attr {
    key: "_output_shapes"
    value {
      list {
        shape {
          dim {
            size: 3
          }
        }
      }
    }
  }
  attr {
    key: "dtype"
    value {
      type: DT_FLOAT
    }
  }
}
node {
  name: "conv2d/BiasAdd"
  op: "BiasAdd"
  input: "conv2d/Conv2D"
  input: "conv2d/BiasAdd/ReadVariableOp"
  attr {
    key: "T"
    value {
      type: DT_FLOAT
    }
  }
  attr {
    key: "_output_shapes"
    value {
      list {
        shape {
          dim {
            size: -1
          }
          dim {
            size: 224
          }
          dim {
            size: 224
          }
          dim {
            size: 3
          }
        }
      }
    }
  }
  attr {
    key: "data_format"
    value {
      s: "NHWC"
    }
  }
}
node {
  name: "conv2d/Relu"
  op: "Relu"
  input: "conv2d/BiasAdd"
  attr {
    key: "T"
    value {
      type: DT_FLOAT
    }
  }
  attr {
    key: "_output_shapes"
    value {
      list {
        shape {
          dim {
            size: -1
          }
          dim {
            size: 224
          }
          dim {
            size: 224
          }
          dim {
            size: 3
          }
        }
      }
    }
  }
}
node {
  name: "max_pooling2d/MaxPool"
  op: "MaxPool"
  input: "conv2d/Relu"
  attr {
    key: "T"
    value {
      type: DT_FLOAT
    }
  }
  attr {
    key: "_output_shapes"
    value {
      list {
        shape {
          dim {
            size: -1
          }
          dim {
            size: 22
          }
          dim {
            size: 22
          }
          dim {
            size: 3
          }
        }
      }
    }
  }
  attr {
    key: "data_format"
    value {
      s: "NHWC"
    }
  }
  attr {
    key: "ksize"
    value {
      list {
        i: 1
        i: 10
        i: 10
        i: 1
      }
    }
  }
  attr {
    key: "padding"
    value {
      s: "VALID"
    }
  }
  attr {
    key: "strides"
    value {
      list {
        i: 1
        i: 10
        i: 10
        i: 1
      }
    }
  }
}
node {
  name: "flatten/Shape"
  op: "Shape"
  input: "max_pooling2d/MaxPool"
  attr {
    key: "T"
    value {
      type: DT_FLOAT
    }
  }
  attr {
    key: "_output_shapes"
    value {
      list {
        shape {
          dim {
            size: 4
          }
        }
      }
    }
  }
  attr {
    key: "out_type"
    value {
      type: DT_INT32
    }
  }
}
node {
  name: "flatten/strided_slice/stack"
  op: "Const"
  attr {
    key: "_output_shapes"
    value {
      list {
        shape {
          dim {
            size: 1
          }
        }
      }
    }
  }
  attr {
    key: "dtype"
    value {
      type: DT_INT32
    }
  }
  attr {
    key: "value"
    value {
      tensor {
        dtype: DT_INT32
        tensor_shape {
          dim {
            size: 1
          }
        }
        int_val: 0
      }
    }
  }
}
node {
  name: "flatten/strided_slice/stack_1"
  op: "Const"
  attr {
    key: "_output_shapes"
    value {
      list {
        shape {
          dim {
            size: 1
          }
        }
      }
    }
  }
  attr {
    key: "dtype"
    value {
      type: DT_INT32
    }
  }
  attr {
    key: "value"
    value {
      tensor {
        dtype: DT_INT32
        tensor_shape {
          dim {
            size: 1
          }
        }
        int_val: 1
      }
    }
  }
}
node {
  name: "flatten/strided_slice/stack_2"
  op: "Const"
  attr {
    key: "_output_shapes"
    value {
      list {
        shape {
          dim {
            size: 1
          }
        }
      }
    }
  }
  attr {
    key: "dtype"
    value {
      type: DT_INT32
    }
  }
  attr {
    key: "value"
    value {
      tensor {
        dtype: DT_INT32
        tensor_shape {
          dim {
            size: 1
          }
        }
        int_val: 1
      }
    }
  }
}
node {
  name: "flatten/strided_slice"
  op: "StridedSlice"
  input: "flatten/Shape"
  input: "flatten/strided_slice/stack"
  input: "flatten/strided_slice/stack_1"
  input: "flatten/strided_slice/stack_2"
  attr {
    key: "Index"
    value {
      type: DT_INT32
    }
  }
  attr {
    key: "T"
    value {
      type: DT_INT32
    }
  }
  attr {
    key: "_output_shapes"
    value {
      list {
        shape {
        }
      }
    }
  }
  attr {
    key: "begin_mask"
    value {
      i: 0
    }
  }
  attr {
    key: "ellipsis_mask"
    value {
      i: 0
    }
  }
  attr {
    key: "end_mask"
    value {
      i: 0
    }
  }
  attr {
    key: "new_axis_mask"
    value {
      i: 0
    }
  }
  attr {
    key: "shrink_axis_mask"
    value {
      i: 1
    }
  }
}
node {
  name: "flatten/Reshape/shape/1"
  op: "Const"
  attr {
    key: "_output_shapes"
    value {
      list {
        shape {
        }
      }
    }
  }
  attr {
    key: "dtype"
    value {
      type: DT_INT32
    }
  }
  attr {
    key: "value"
    value {
      tensor {
        dtype: DT_INT32
        tensor_shape {
        }
        int_val: -1
      }
    }
  }
}
node {
  name: "flatten/Reshape/shape"
  op: "Pack"
  input: "flatten/strided_slice"
  input: "flatten/Reshape/shape/1"
  attr {
    key: "N"
    value {
      i: 2
    }
  }
  attr {
    key: "T"
    value {
      type: DT_INT32
    }
  }
  attr {
    key: "_output_shapes"
    value {
      list {
        shape {
          dim {
            size: 2
          }
        }
      }
    }
  }
  attr {
    key: "axis"
    value {
      i: 0
    }
  }
}
node {
  name: "flatten/Reshape"
  op: "Reshape"
  input: "max_pooling2d/MaxPool"
  input: "flatten/Reshape/shape"
  attr {
    key: "T"
    value {
      type: DT_FLOAT
    }
  }
  attr {
    key: "Tshape"
    value {
      type: DT_INT32
    }
  }
  attr {
    key: "_output_shapes"
    value {
      list {
        shape {
          dim {
            size: -1
          }
          dim {
            size: 1452
          }
        }
      }
    }
  }
}
node {
  name: "dense_9/kernel/Initializer/random_uniform/shape"
  op: "Const"
  attr {
    key: "_class"
    value {
      list {
        s: "loc:@dense_9/kernel"
      }
    }
  }
  attr {
    key: "_output_shapes"
    value {
      list {
        shape {
          dim {
            size: 2
          }
        }
      }
    }
  }
  attr {
    key: "dtype"
    value {
      type: DT_INT32
    }
  }
  attr {
    key: "value"
    value {
      tensor {
        dtype: DT_INT32
        tensor_shape {
          dim {
            size: 2
          }
        }
        tensor_content: "\254\005\000\0002\000\000\000"
      }
    }
  }
}
node {
  name: "dense_9/kernel/Initializer/random_uniform/min"
  op: "Const"
  attr {
    key: "_class"
    value {
      list {
        s: "loc:@dense_9/kernel"
      }
    }
  }
  attr {
    key: "_output_shapes"
    value {
      list {
        shape {
        }
      }
    }
  }
  attr {
    key: "dtype"
    value {
      type: DT_FLOAT
    }
  }
  attr {
    key: "value"
    value {
      tensor {
        dtype: DT_FLOAT
        tensor_shape {
        }
        float_val: -0.06320343166589737
      }
    }
  }
}
node {
  name: "dense_9/kernel/Initializer/random_uniform/max"
  op: "Const"
  attr {
    key: "_class"
    value {
      list {
        s: "loc:@dense_9/kernel"
      }
    }
  }
  attr {
    key: "_output_shapes"
    value {
      list {
        shape {
        }
      }
    }
  }
  attr {
    key: "dtype"
    value {
      type: DT_FLOAT
    }
  }
  attr {
    key: "value"
    value {
      tensor {
        dtype: DT_FLOAT
        tensor_shape {
        }
        float_val: 0.06320343166589737
      }
    }
  }
}
node {
  name: "dense_9/kernel/Initializer/random_uniform/RandomUniform"
  op: "RandomUniform"
  input: "dense_9/kernel/Initializer/random_uniform/shape"
  attr {
    key: "T"
    value {
      type: DT_INT32
    }
  }
  attr {
    key: "_class"
    value {
      list {
        s: "loc:@dense_9/kernel"
      }
    }
  }
  attr {
    key: "_output_shapes"
    value {
      list {
        shape {
          dim {
            size: 1452
          }
          dim {
            size: 50
          }
        }
      }
    }
  }
  attr {
    key: "dtype"
    value {
      type: DT_FLOAT
    }
  }
  attr {
    key: "seed"
    value {
      i: 0
    }
  }
  attr {
    key: "seed2"
    value {
      i: 0
    }
  }
}
node {
  name: "dense_9/kernel/Initializer/random_uniform/sub"
  op: "Sub"
  input: "dense_9/kernel/Initializer/random_uniform/max"
  input: "dense_9/kernel/Initializer/random_uniform/min"
  attr {
    key: "T"
    value {
      type: DT_FLOAT
    }
  }
  attr {
    key: "_class"
    value {
      list {
        s: "loc:@dense_9/kernel"
      }
    }
  }
  attr {
    key: "_output_shapes"
    value {
      list {
        shape {
        }
      }
    }
  }
}
node {
  name: "dense_9/kernel/Initializer/random_uniform/mul"
  op: "Mul"
  input: "dense_9/kernel/Initializer/random_uniform/RandomUniform"
  input: "dense_9/kernel/Initializer/random_uniform/sub"
  attr {
    key: "T"
    value {
      type: DT_FLOAT
    }
  }
  attr {
    key: "_class"
    value {
      list {
        s: "loc:@dense_9/kernel"
      }
    }
  }
  attr {
    key: "_output_shapes"
    value {
      list {
        shape {
          dim {
            size: 1452
          }
          dim {
            size: 50
          }
        }
      }
    }
  }
}
node {
  name: "dense_9/kernel/Initializer/random_uniform"
  op: "Add"
  input: "dense_9/kernel/Initializer/random_uniform/mul"
  input: "dense_9/kernel/Initializer/random_uniform/min"
  attr {
    key: "T"
    value {
      type: DT_FLOAT
    }
  }
  attr {
    key: "_class"
    value {
      list {
        s: "loc:@dense_9/kernel"
      }
    }
  }
  attr {
    key: "_output_shapes"
    value {
      list {
        shape {
          dim {
            size: 1452
          }
          dim {
            size: 50
          }
        }
      }
    }
  }
}
node {
  name: "dense_9/kernel"
  op: "VarHandleOp"
  attr {
    key: "_class"
    value {
      list {
        s: "loc:@dense_9/kernel"
      }
    }
  }
  attr {
    key: "_output_shapes"
    value {
      list {
        shape {
        }
      }
    }
  }
  attr {
    key: "container"
    value {
      s: ""
    }
  }
  attr {
    key: "dtype"
    value {
      type: DT_FLOAT
    }
  }
  attr {
    key: "shape"
    value {
      shape {
        dim {
          size: 1452
        }
        dim {
          size: 50
        }
      }
    }
  }
  attr {
    key: "shared_name"
    value {
      s: "dense_9/kernel"
    }
  }
}
node {
  name: "dense_9/kernel/IsInitialized/VarIsInitializedOp"
  op: "VarIsInitializedOp"
  input: "dense_9/kernel"
  attr {
    key: "_output_shapes"
    value {
      list {
        shape {
        }
      }
    }
  }
}
node {
  name: "dense_9/kernel/Assign"
  op: "AssignVariableOp"
  input: "dense_9/kernel"
  input: "dense_9/kernel/Initializer/random_uniform"
  attr {
    key: "_class"
    value {
      list {
        s: "loc:@dense_9/kernel"
      }
    }
  }
  attr {
    key: "dtype"
    value {
      type: DT_FLOAT
    }
  }
}
node {
  name: "dense_9/kernel/Read/ReadVariableOp"
  op: "ReadVariableOp"
  input: "dense_9/kernel"
  attr {
    key: "_class"
    value {
      list {
        s: "loc:@dense_9/kernel"
      }
    }
  }
  attr {
    key: "_output_shapes"
    value {
      list {
        shape {
          dim {
            size: 1452
          }
          dim {
            size: 50
          }
        }
      }
    }
  }
  attr {
    key: "dtype"
    value {
      type: DT_FLOAT
    }
  }
}
node {
  name: "dense_9/bias/Initializer/zeros"
  op: "Const"
  attr {
    key: "_class"
    value {
      list {
        s: "loc:@dense_9/bias"
      }
    }
  }
  attr {
    key: "_output_shapes"
    value {
      list {
        shape {
          dim {
            size: 50
          }
        }
      }
    }
  }
  attr {
    key: "dtype"
    value {
      type: DT_FLOAT
    }
  }
  attr {
    key: "value"
    value {
      tensor {
        dtype: DT_FLOAT
        tensor_shape {
          dim {
            size: 50
          }
        }
        float_val: 0.0
      }
    }
  }
}
node {
  name: "dense_9/bias"
  op: "VarHandleOp"
  attr {
    key: "_class"
    value {
      list {
        s: "loc:@dense_9/bias"
      }
    }
  }
  attr {
    key: "_output_shapes"
    value {
      list {
        shape {
        }
      }
    }
  }
  attr {
    key: "container"
    value {
      s: ""
    }
  }
  attr {
    key: "dtype"
    value {
      type: DT_FLOAT
    }
  }
  attr {
    key: "shape"
    value {
      shape {
        dim {
          size: 50
        }
      }
    }
  }
  attr {
    key: "shared_name"
    value {
      s: "dense_9/bias"
    }
  }
}
node {
  name: "dense_9/bias/IsInitialized/VarIsInitializedOp"
  op: "VarIsInitializedOp"
  input: "dense_9/bias"
  attr {
    key: "_output_shapes"
    value {
      list {
        shape {
        }
      }
    }
  }
}
node {
  name: "dense_9/bias/Assign"
  op: "AssignVariableOp"
  input: "dense_9/bias"
  input: "dense_9/bias/Initializer/zeros"
  attr {
    key: "_class"
    value {
      list {
        s: "loc:@dense_9/bias"
      }
    }
  }
  attr {
    key: "dtype"
    value {
      type: DT_FLOAT
    }
  }
}
node {
  name: "dense_9/bias/Read/ReadVariableOp"
  op: "ReadVariableOp"
  input: "dense_9/bias"
  attr {
    key: "_class"
    value {
      list {
        s: "loc:@dense_9/bias"
      }
    }
  }
  attr {
    key: "_output_shapes"
    value {
      list {
        shape {
          dim {
            size: 50
          }
        }
      }
    }
  }
  attr {
    key: "dtype"
    value {
      type: DT_FLOAT
    }
  }
}
node {
  name: "dense_9/MatMul/ReadVariableOp"
  op: "ReadVariableOp"
  input: "dense_9/kernel"
  attr {
    key: "_output_shapes"
    value {
      list {
        shape {
          dim {
            size: 1452
          }
          dim {
            size: 50
          }
        }
      }
    }
  }
  attr {
    key: "dtype"
    value {
      type: DT_FLOAT
    }
  }
}
node {
  name: "dense_9/MatMul"
  op: "MatMul"
  input: "flatten/Reshape"
  input: "dense_9/MatMul/ReadVariableOp"
  attr {
    key: "T"
    value {
      type: DT_FLOAT
    }
  }
  attr {
    key: "_output_shapes"
    value {
      list {
        shape {
          dim {
            size: -1
          }
          dim {
            size: 50
          }
        }
      }
    }
  }
  attr {
    key: "transpose_a"
    value {
      b: false
    }
  }
  attr {
    key: "transpose_b"
    value {
      b: false
    }
  }
}
node {
  name: "dense_9/BiasAdd/ReadVariableOp"
  op: "ReadVariableOp"
  input: "dense_9/bias"
  attr {
    key: "_output_shapes"
    value {
      list {
        shape {
          dim {
            size: 50
          }
        }
      }
    }
  }
  attr {
    key: "dtype"
    value {
      type: DT_FLOAT
    }
  }
}
node {
  name: "dense_9/BiasAdd"
  op: "BiasAdd"
  input: "dense_9/MatMul"
  input: "dense_9/BiasAdd/ReadVariableOp"
  attr {
    key: "T"
    value {
      type: DT_FLOAT
    }
  }
  attr {
    key: "_output_shapes"
    value {
      list {
        shape {
          dim {
            size: -1
          }
          dim {
            size: 50
          }
        }
      }
    }
  }
  attr {
    key: "data_format"
    value {
      s: "NHWC"
    }
  }
}
node {
  name: "dense_9/Softmax"
  op: "Softmax"
  input: "dense_9/BiasAdd"
  attr {
    key: "T"
    value {
      type: DT_FLOAT
    }
  }
  attr {
    key: "_output_shapes"
    value {
      list {
        shape {
          dim {
            size: -1
          }
          dim {
            size: 50
          }
        }
      }
    }
  }
}
node {
  name: "total/Initializer/zeros"
  op: "Const"
  attr {
    key: "_class"
    value {
      list {
        s: "loc:@total"
      }
    }
  }
  attr {
    key: "_output_shapes"
    value {
      list {
        shape {
        }
      }
    }
  }
  attr {
    key: "dtype"
    value {
      type: DT_FLOAT
    }
  }
  attr {
    key: "value"
    value {
      tensor {
        dtype: DT_FLOAT
        tensor_shape {
        }
        float_val: 0.0
      }
    }
  }
}
node {
  name: "total"
  op: "VarHandleOp"
  attr {
    key: "_class"
    value {
      list {
        s: "loc:@total"
      }
    }
  }
  attr {
    key: "_output_shapes"
    value {
      list {
        shape {
        }
      }
    }
  }
  attr {
    key: "container"
    value {
      s: ""
    }
  }
  attr {
    key: "dtype"
    value {
      type: DT_FLOAT
    }
  }
  attr {
    key: "shape"
    value {
      shape {
      }
    }
  }
  attr {
    key: "shared_name"
    value {
      s: "total"
    }
  }
}
node {
  name: "total/IsInitialized/VarIsInitializedOp"
  op: "VarIsInitializedOp"
  input: "total"
  attr {
    key: "_output_shapes"
    value {
      list {
        shape {
        }
      }
    }
  }
}
node {
  name: "total/Assign"
  op: "AssignVariableOp"
  input: "total"
  input: "total/Initializer/zeros"
  attr {
    key: "_class"
    value {
      list {
        s: "loc:@total"
      }
    }
  }
  attr {
    key: "dtype"
    value {
      type: DT_FLOAT
    }
  }
}
node {
  name: "total/Read/ReadVariableOp"
  op: "ReadVariableOp"
  input: "total"
  attr {
    key: "_class"
    value {
      list {
        s: "loc:@total"
      }
    }
  }
  attr {
    key: "_output_shapes"
    value {
      list {
        shape {
        }
      }
    }
  }
  attr {
    key: "dtype"
    value {
      type: DT_FLOAT
    }
  }
}
node {
  name: "count_2/Initializer/zeros"
  op: "Const"
  attr {
    key: "_class"
    value {
      list {
        s: "loc:@count_2"
      }
    }
  }
  attr {
    key: "_output_shapes"
    value {
      list {
        shape {
        }
      }
    }
  }
  attr {
    key: "dtype"
    value {
      type: DT_FLOAT
    }
  }
  attr {
    key: "value"
    value {
      tensor {
        dtype: DT_FLOAT
        tensor_shape {
        }
        float_val: 0.0
      }
    }
  }
}
node {
  name: "count_2"
  op: "VarHandleOp"
  attr {
    key: "_class"
    value {
      list {
        s: "loc:@count_2"
      }
    }
  }
  attr {
    key: "_output_shapes"
    value {
      list {
        shape {
        }
      }
    }
  }
  attr {
    key: "container"
    value {
      s: ""
    }
  }
  attr {
    key: "dtype"
    value {
      type: DT_FLOAT
    }
  }
  attr {
    key: "shape"
    value {
      shape {
      }
    }
  }
  attr {
    key: "shared_name"
    value {
      s: "count_2"
    }
  }
}
node {
  name: "count_2/IsInitialized/VarIsInitializedOp"
  op: "VarIsInitializedOp"
  input: "count_2"
  attr {
    key: "_output_shapes"
    value {
      list {
        shape {
        }
      }
    }
  }
}
node {
  name: "count_2/Assign"
  op: "AssignVariableOp"
  input: "count_2"
  input: "count_2/Initializer/zeros"
  attr {
    key: "_class"
    value {
      list {
        s: "loc:@count_2"
      }
    }
  }
  attr {
    key: "dtype"
    value {
      type: DT_FLOAT
    }
  }
}
node {
  name: "count_2/Read/ReadVariableOp"
  op: "ReadVariableOp"
  input: "count_2"
  attr {
    key: "_class"
    value {
      list {
        s: "loc:@count_2"
      }
    }
  }
  attr {
    key: "_output_shapes"
    value {
      list {
        shape {
        }
      }
    }
  }
  attr {
    key: "dtype"
    value {
      type: DT_FLOAT
    }
  }
}
node {
  name: "loss/dense_9_loss/Sum/reduction_indices"
  op: "Const"
  attr {
    key: "_output_shapes"
    value {
      list {
        shape {
        }
      }
    }
  }
  attr {
    key: "dtype"
    value {
      type: DT_INT32
    }
  }
  attr {
    key: "value"
    value {
      tensor {
        dtype: DT_INT32
        tensor_shape {
        }
        int_val: 1
      }
    }
  }
}
node {
  name: "loss/dense_9_loss/Sum"
  op: "Sum"
  input: "dense_9/Softmax"
  input: "loss/dense_9_loss/Sum/reduction_indices"
  attr {
    key: "T"
    value {
      type: DT_FLOAT
    }
  }
  attr {
    key: "Tidx"
    value {
      type: DT_INT32
    }
  }
  attr {
    key: "_output_shapes"
    value {
      list {
        shape {
          dim {
            size: -1
          }
          dim {
            size: 1
          }
        }
      }
    }
  }
  attr {
    key: "keep_dims"
    value {
      b: true
    }
  }
}
node {
  name: "loss/dense_9_loss/truediv"
  op: "RealDiv"
  input: "dense_9/Softmax"
  input: "loss/dense_9_loss/Sum"
  attr {
    key: "T"
    value {
      type: DT_FLOAT
    }
  }
  attr {
    key: "_output_shapes"
    value {
      list {
        shape {
          dim {
            size: -1
          }
          dim {
            size: 50
          }
        }
      }
    }
  }
}
node {
  name: "loss/dense_9_loss/Const"
  op: "Const"
  attr {
    key: "_output_shapes"
    value {
      list {
        shape {
        }
      }
    }
  }
  attr {
    key: "dtype"
    value {
      type: DT_FLOAT
    }
  }
  attr {
    key: "value"
    value {
      tensor {
        dtype: DT_FLOAT
        tensor_shape {
        }
        float_val: 1.0000000116860974e-07
      }
    }
  }
}
node {
  name: "loss/dense_9_loss/sub/x"
  op: "Const"
  attr {
    key: "_output_shapes"
    value {
      list {
        shape {
        }
      }
    }
  }
  attr {
    key: "dtype"
    value {
      type: DT_FLOAT
    }
  }
  attr {
    key: "value"
    value {
      tensor {
        dtype: DT_FLOAT
        tensor_shape {
        }
        float_val: 1.0
      }
    }
  }
}
node {
  name: "loss/dense_9_loss/sub"
  op: "Sub"
  input: "loss/dense_9_loss/sub/x"
  input: "loss/dense_9_loss/Const"
  attr {
    key: "T"
    value {
      type: DT_FLOAT
    }
  }
  attr {
    key: "_output_shapes"
    value {
      list {
        shape {
        }
      }
    }
  }
}
node {
  name: "loss/dense_9_loss/clip_by_value/Minimum"
  op: "Minimum"
  input: "loss/dense_9_loss/truediv"
  input: "loss/dense_9_loss/sub"
  attr {
    key: "T"
    value {
      type: DT_FLOAT
    }
  }
  attr {
    key: "_output_shapes"
    value {
      list {
        shape {
          dim {
            size: -1
          }
          dim {
            size: 50
          }
        }
      }
    }
  }
}
node {
  name: "loss/dense_9_loss/clip_by_value"
  op: "Maximum"
  input: "loss/dense_9_loss/clip_by_value/Minimum"
  input: "loss/dense_9_loss/Const"
  attr {
    key: "T"
    value {
      type: DT_FLOAT
    }
  }
  attr {
    key: "_output_shapes"
    value {
      list {
        shape {
          dim {
            size: -1
          }
          dim {
            size: 50
          }
        }
      }
    }
  }
}
node {
  name: "loss/dense_9_loss/Log"
  op: "Log"
  input: "loss/dense_9_loss/clip_by_value"
  attr {
    key: "T"
    value {
      type: DT_FLOAT
    }
  }
  attr {
    key: "_output_shapes"
    value {
      list {
        shape {
          dim {
            size: -1
          }
          dim {
            size: 50
          }
        }
      }
    }
  }
}
node {
  name: "loss/dense_9_loss/mul"
  op: "Mul"
  input: "IteratorGetNext:1"
  input: "loss/dense_9_loss/Log"
  attr {
    key: "T"
    value {
      type: DT_FLOAT
    }
  }
  attr {
    key: "_output_shapes"
    value {
      list {
        shape {
          dim {
            size: -1
          }
          dim {
            size: 50
          }
        }
      }
    }
  }
}
node {
  name: "loss/dense_9_loss/Sum_1/reduction_indices"
  op: "Const"
  attr {
    key: "_output_shapes"
    value {
      list {
        shape {
        }
      }
    }
  }
  attr {
    key: "dtype"
    value {
      type: DT_INT32
    }
  }
  attr {
    key: "value"
    value {
      tensor {
        dtype: DT_INT32
        tensor_shape {
        }
        int_val: 1
      }
    }
  }
}
node {
  name: "loss/dense_9_loss/Sum_1"
  op: "Sum"
  input: "loss/dense_9_loss/mul"
  input: "loss/dense_9_loss/Sum_1/reduction_indices"
  attr {
    key: "T"
    value {
      type: DT_FLOAT
    }
  }
  attr {
    key: "Tidx"
    value {
      type: DT_INT32
    }
  }
  attr {
    key: "_output_shapes"
    value {
      list {
        shape {
          dim {
            size: -1
          }
        }
      }
    }
  }
  attr {
    key: "keep_dims"
    value {
      b: false
    }
  }
}
node {
  name: "loss/dense_9_loss/Neg"
  op: "Neg"
  input: "loss/dense_9_loss/Sum_1"
  attr {
    key: "T"
    value {
      type: DT_FLOAT
    }
  }
  attr {
    key: "_output_shapes"
    value {
      list {
        shape {
          dim {
            size: -1
          }
        }
      }
    }
  }
}
node {
  name: "loss/dense_9_loss/Const_1"
  op: "Const"
  attr {
    key: "_output_shapes"
    value {
      list {
        shape {
          dim {
            size: 1
          }
        }
      }
    }
  }
  attr {
    key: "dtype"
    value {
      type: DT_INT32
    }
  }
  attr {
    key: "value"
    value {
      tensor {
        dtype: DT_INT32
        tensor_shape {
          dim {
            size: 1
          }
        }
        int_val: 0
      }
    }
  }
}
node {
  name: "loss/dense_9_loss/Mean"
  op: "Mean"
  input: "loss/dense_9_loss/Neg"
  input: "loss/dense_9_loss/Const_1"
  attr {
    key: "T"
    value {
      type: DT_FLOAT
    }
  }
  attr {
    key: "Tidx"
    value {
      type: DT_INT32
    }
  }
  attr {
    key: "_output_shapes"
    value {
      list {
        shape {
        }
      }
    }
  }
  attr {
    key: "keep_dims"
    value {
      b: false
    }
  }
}
node {
  name: "loss/mul/x"
  op: "Const"
  attr {
    key: "_output_shapes"
    value {
      list {
        shape {
        }
      }
    }
  }
  attr {
    key: "dtype"
    value {
      type: DT_FLOAT
    }
  }
  attr {
    key: "value"
    value {
      tensor {
        dtype: DT_FLOAT
        tensor_shape {
        }
        float_val: 1.0
      }
    }
  }
}
node {
  name: "loss/mul"
  op: "Mul"
  input: "loss/mul/x"
  input: "loss/dense_9_loss/Mean"
  attr {
    key: "T"
    value {
      type: DT_FLOAT
    }
  }
  attr {
    key: "_output_shapes"
    value {
      list {
        shape {
        }
      }
    }
  }
}
node {
  name: "metrics/acc/ArgMax/dimension"
  op: "Const"
  attr {
    key: "_output_shapes"
    value {
      list {
        shape {
        }
      }
    }
  }
  attr {
    key: "dtype"
    value {
      type: DT_INT32
    }
  }
  attr {
    key: "value"
    value {
      tensor {
        dtype: DT_INT32
        tensor_shape {
        }
        int_val: -1
      }
    }
  }
}
node {
  name: "metrics/acc/ArgMax"
  op: "ArgMax"
  input: "IteratorGetNext:1"
  input: "metrics/acc/ArgMax/dimension"
  attr {
    key: "T"
    value {
      type: DT_FLOAT
    }
  }
  attr {
    key: "Tidx"
    value {
      type: DT_INT32
    }
  }
  attr {
    key: "_output_shapes"
    value {
      list {
        shape {
          dim {
            size: -1
          }
        }
      }
    }
  }
  attr {
    key: "output_type"
    value {
      type: DT_INT64
    }
  }
}
node {
  name: "metrics/acc/ArgMax_1/dimension"
  op: "Const"
  attr {
    key: "_output_shapes"
    value {
      list {
        shape {
        }
      }
    }
  }
  attr {
    key: "dtype"
    value {
      type: DT_INT32
    }
  }
  attr {
    key: "value"
    value {
      tensor {
        dtype: DT_INT32
        tensor_shape {
        }
        int_val: -1
      }
    }
  }
}
node {
  name: "metrics/acc/ArgMax_1"
  op: "ArgMax"
  input: "dense_9/Softmax"
  input: "metrics/acc/ArgMax_1/dimension"
  attr {
    key: "T"
    value {
      type: DT_FLOAT
    }
  }
  attr {
    key: "Tidx"
    value {
      type: DT_INT32
    }
  }
  attr {
    key: "_output_shapes"
    value {
      list {
        shape {
          dim {
            size: -1
          }
        }
      }
    }
  }
  attr {
    key: "output_type"
    value {
      type: DT_INT64
    }
  }
}
node {
  name: "metrics/acc/Equal"
  op: "Equal"
  input: "metrics/acc/ArgMax"
  input: "metrics/acc/ArgMax_1"
  attr {
    key: "T"
    value {
      type: DT_INT64
    }
  }
  attr {
    key: "_output_shapes"
    value {
      list {
        shape {
          dim {
            size: -1
          }
        }
      }
    }
  }
}
node {
  name: "metrics/acc/Cast"
  op: "Cast"
  input: "metrics/acc/Equal"
  attr {
    key: "DstT"
    value {
      type: DT_FLOAT
    }
  }
  attr {
    key: "SrcT"
    value {
      type: DT_BOOL
    }
  }
  attr {
    key: "Truncate"
    value {
      b: false
    }
  }
  attr {
    key: "_output_shapes"
    value {
      list {
        shape {
          dim {
            size: -1
          }
        }
      }
    }
  }
}
node {
  name: "metrics/acc/Size"
  op: "Size"
  input: "metrics/acc/Cast"
  attr {
    key: "T"
    value {
      type: DT_FLOAT
    }
  }
  attr {
    key: "_output_shapes"
    value {
      list {
        shape {
        }
      }
    }
  }
  attr {
    key: "out_type"
    value {
      type: DT_INT32
    }
  }
}
node {
  name: "metrics/acc/Cast_1"
  op: "Cast"
  input: "metrics/acc/Size"
  attr {
    key: "DstT"
    value {
      type: DT_FLOAT
    }
  }
  attr {
    key: "SrcT"
    value {
      type: DT_INT32
    }
  }
  attr {
    key: "Truncate"
    value {
      b: false
    }
  }
  attr {
    key: "_output_shapes"
    value {
      list {
        shape {
        }
      }
    }
  }
}
node {
  name: "metrics/acc/Const"
  op: "Const"
  attr {
    key: "_output_shapes"
    value {
      list {
        shape {
          dim {
            size: 1
          }
        }
      }
    }
  }
  attr {
    key: "dtype"
    value {
      type: DT_INT32
    }
  }
  attr {
    key: "value"
    value {
      tensor {
        dtype: DT_INT32
        tensor_shape {
          dim {
            size: 1
          }
        }
        int_val: 0
      }
    }
  }
}
node {
  name: "metrics/acc/Sum"
  op: "Sum"
  input: "metrics/acc/Cast"
  input: "metrics/acc/Const"
  attr {
    key: "T"
    value {
      type: DT_FLOAT
    }
  }
  attr {
    key: "Tidx"
    value {
      type: DT_INT32
    }
  }
  attr {
    key: "_output_shapes"
    value {
      list {
        shape {
        }
      }
    }
  }
  attr {
    key: "keep_dims"
    value {
      b: false
    }
  }
}
node {
  name: "metrics/acc/AssignAddVariableOp"
  op: "AssignAddVariableOp"
  input: "total"
  input: "metrics/acc/Sum"
  attr {
    key: "dtype"
    value {
      type: DT_FLOAT
    }
  }
}
node {
  name: "metrics/acc/ReadVariableOp"
  op: "ReadVariableOp"
  input: "total"
  input: "^metrics/acc/AssignAddVariableOp"
  attr {
    key: "_output_shapes"
    value {
      list {
        shape {
        }
      }
    }
  }
  attr {
    key: "dtype"
    value {
      type: DT_FLOAT
    }
  }
}
node {
  name: "metrics/acc/AssignAddVariableOp_1"
  op: "AssignAddVariableOp"
  input: "count_2"
  input: "metrics/acc/Cast_1"
  input: "^metrics/acc/ReadVariableOp"
  attr {
    key: "dtype"
    value {
      type: DT_FLOAT
    }
  }
}
node {
  name: "metrics/acc/ReadVariableOp_1"
  op: "ReadVariableOp"
  input: "count_2"
  input: "^metrics/acc/AssignAddVariableOp_1"
  input: "^metrics/acc/ReadVariableOp"
  attr {
    key: "_output_shapes"
    value {
      list {
        shape {
        }
      }
    }
  }
  attr {
    key: "dtype"
    value {
      type: DT_FLOAT
    }
  }
}
node {
  name: "metrics/acc/div_no_nan/ReadVariableOp"
  op: "ReadVariableOp"
  input: "total"
  input: "^metrics/acc/ReadVariableOp_1"
  attr {
    key: "_output_shapes"
    value {
      list {
        shape {
        }
      }
    }
  }
  attr {
    key: "dtype"
    value {
      type: DT_FLOAT
    }
  }
}
node {
  name: "metrics/acc/div_no_nan/ReadVariableOp_1"
  op: "ReadVariableOp"
  input: "count_2"
  input: "^metrics/acc/ReadVariableOp_1"
  attr {
    key: "_output_shapes"
    value {
      list {
        shape {
        }
      }
    }
  }
  attr {
    key: "dtype"
    value {
      type: DT_FLOAT
    }
  }
}
node {
  name: "metrics/acc/div_no_nan"
  op: "DivNoNan"
  input: "metrics/acc/div_no_nan/ReadVariableOp"
  input: "metrics/acc/div_no_nan/ReadVariableOp_1"
  attr {
    key: "T"
    value {
      type: DT_FLOAT
    }
  }
  attr {
    key: "_output_shapes"
    value {
      list {
        shape {
        }
      }
    }
  }
}
node {
  name: "metrics/acc/ArgMax_2/dimension"
  op: "Const"
  attr {
    key: "_output_shapes"
    value {
      list {
        shape {
        }
      }
    }
  }
  attr {
    key: "dtype"
    value {
      type: DT_INT32
    }
  }
  attr {
    key: "value"
    value {
      tensor {
        dtype: DT_INT32
        tensor_shape {
        }
        int_val: -1
      }
    }
  }
}
node {
  name: "metrics/acc/ArgMax_2"
  op: "ArgMax"
  input: "IteratorGetNext:1"
  input: "metrics/acc/ArgMax_2/dimension"
  attr {
    key: "T"
    value {
      type: DT_FLOAT
    }
  }
  attr {
    key: "Tidx"
    value {
      type: DT_INT32
    }
  }
  attr {
    key: "_output_shapes"
    value {
      list {
        shape {
          dim {
            size: -1
          }
        }
      }
    }
  }
  attr {
    key: "output_type"
    value {
      type: DT_INT64
    }
  }
}
node {
  name: "metrics/acc/ArgMax_3/dimension"
  op: "Const"
  attr {
    key: "_output_shapes"
    value {
      list {
        shape {
        }
      }
    }
  }
  attr {
    key: "dtype"
    value {
      type: DT_INT32
    }
  }
  attr {
    key: "value"
    value {
      tensor {
        dtype: DT_INT32
        tensor_shape {
        }
        int_val: -1
      }
    }
  }
}
node {
  name: "metrics/acc/ArgMax_3"
  op: "ArgMax"
  input: "dense_9/Softmax"
  input: "metrics/acc/ArgMax_3/dimension"
  attr {
    key: "T"
    value {
      type: DT_FLOAT
    }
  }
  attr {
    key: "Tidx"
    value {
      type: DT_INT32
    }
  }
  attr {
    key: "_output_shapes"
    value {
      list {
        shape {
          dim {
            size: -1
          }
        }
      }
    }
  }
  attr {
    key: "output_type"
    value {
      type: DT_INT64
    }
  }
}
node {
  name: "metrics/acc/Equal_1"
  op: "Equal"
  input: "metrics/acc/ArgMax_2"
  input: "metrics/acc/ArgMax_3"
  attr {
    key: "T"
    value {
      type: DT_INT64
    }
  }
  attr {
    key: "_output_shapes"
    value {
      list {
        shape {
          dim {
            size: -1
          }
        }
      }
    }
  }
}
node {
  name: "metrics/acc/Cast_2"
  op: "Cast"
  input: "metrics/acc/Equal_1"
  attr {
    key: "DstT"
    value {
      type: DT_FLOAT
    }
  }
  attr {
    key: "SrcT"
    value {
      type: DT_BOOL
    }
  }
  attr {
    key: "Truncate"
    value {
      b: false
    }
  }
  attr {
    key: "_output_shapes"
    value {
      list {
        shape {
          dim {
            size: -1
          }
        }
      }
    }
  }
}
node {
  name: "metrics/acc/Const_1"
  op: "Const"
  attr {
    key: "_output_shapes"
    value {
      list {
        shape {
          dim {
            size: 1
          }
        }
      }
    }
  }
  attr {
    key: "dtype"
    value {
      type: DT_INT32
    }
  }
  attr {
    key: "value"
    value {
      tensor {
        dtype: DT_INT32
        tensor_shape {
          dim {
            size: 1
          }
        }
        int_val: 0
      }
    }
  }
}
node {
  name: "metrics/acc/Mean"
  op: "Mean"
  input: "metrics/acc/Cast_2"
  input: "metrics/acc/Const_1"
  attr {
    key: "T"
    value {
      type: DT_FLOAT
    }
  }
  attr {
    key: "Tidx"
    value {
      type: DT_INT32
    }
  }
  attr {
    key: "_output_shapes"
    value {
      list {
        shape {
        }
      }
    }
  }
  attr {
    key: "keep_dims"
    value {
      b: false
    }
  }
}
node {
  name: "training/TFOptimizer/gradients/Shape"
  op: "Const"
  attr {
    key: "_output_shapes"
    value {
      list {
        shape {
          dim {
          }
        }
      }
    }
  }
  attr {
    key: "dtype"
    value {
      type: DT_INT32
    }
  }
  attr {
    key: "value"
    value {
      tensor {
        dtype: DT_INT32
        tensor_shape {
          dim {
          }
        }
      }
    }
  }
}
node {
  name: "training/TFOptimizer/gradients/grad_ys_0"
  op: "Const"
  attr {
    key: "_output_shapes"
    value {
      list {
        shape {
        }
      }
    }
  }
  attr {
    key: "dtype"
    value {
      type: DT_FLOAT
    }
  }
  attr {
    key: "value"
    value {
      tensor {
        dtype: DT_FLOAT
        tensor_shape {
        }
        float_val: 1.0
      }
    }
  }
}
node {
  name: "training/TFOptimizer/gradients/Fill"
  op: "Fill"
  input: "training/TFOptimizer/gradients/Shape"
  input: "training/TFOptimizer/gradients/grad_ys_0"
  attr {
    key: "T"
    value {
      type: DT_FLOAT
    }
  }
  attr {
    key: "_output_shapes"
    value {
      list {
        shape {
        }
      }
    }
  }
  attr {
    key: "index_type"
    value {
      type: DT_INT32
    }
  }
}
node {
  name: "training/TFOptimizer/gradients/loss/mul_grad/Mul"
  op: "Mul"
  input: "training/TFOptimizer/gradients/Fill"
  input: "loss/dense_9_loss/Mean"
  attr {
    key: "T"
    value {
      type: DT_FLOAT
    }
  }
  attr {
    key: "_output_shapes"
    value {
      list {
        shape {
        }
      }
    }
  }
}
node {
  name: "training/TFOptimizer/gradients/loss/mul_grad/Mul_1"
  op: "Mul"
  input: "training/TFOptimizer/gradients/Fill"
  input: "loss/mul/x"
  attr {
    key: "T"
    value {
      type: DT_FLOAT
    }
  }
  attr {
    key: "_output_shapes"
    value {
      list {
        shape {
        }
      }
    }
  }
}
node {
  name: "training/TFOptimizer/gradients/loss/mul_grad/tuple/group_deps"
  op: "NoOp"
  input: "^training/TFOptimizer/gradients/loss/mul_grad/Mul"
  input: "^training/TFOptimizer/gradients/loss/mul_grad/Mul_1"
}
node {
  name: "training/TFOptimizer/gradients/loss/mul_grad/tuple/control_dependency"
  op: "Identity"
  input: "training/TFOptimizer/gradients/loss/mul_grad/Mul"
  input: "^training/TFOptimizer/gradients/loss/mul_grad/tuple/group_deps"
  attr {
    key: "T"
    value {
      type: DT_FLOAT
    }
  }
  attr {
    key: "_class"
    value {
      list {
        s: "loc:@training/TFOptimizer/gradients/loss/mul_grad/Mul"
      }
    }
  }
  attr {
    key: "_output_shapes"
    value {
      list {
        shape {
        }
      }
    }
  }
}
node {
  name: "training/TFOptimizer/gradients/loss/mul_grad/tuple/control_dependency_1"
  op: "Identity"
  input: "training/TFOptimizer/gradients/loss/mul_grad/Mul_1"
  input: "^training/TFOptimizer/gradients/loss/mul_grad/tuple/group_deps"
  attr {
    key: "T"
    value {
      type: DT_FLOAT
    }
  }
  attr {
    key: "_class"
    value {
      list {
        s: "loc:@training/TFOptimizer/gradients/loss/mul_grad/Mul_1"
      }
    }
  }
  attr {
    key: "_output_shapes"
    value {
      list {
        shape {
        }
      }
    }
  }
}
node {
  name: "training/TFOptimizer/gradients/loss/dense_9_loss/Mean_grad/Reshape/shape"
  op: "Const"
  attr {
    key: "_output_shapes"
    value {
      list {
        shape {
          dim {
            size: 1
          }
        }
      }
    }
  }
  attr {
    key: "dtype"
    value {
      type: DT_INT32
    }
  }
  attr {
    key: "value"
    value {
      tensor {
        dtype: DT_INT32
        tensor_shape {
          dim {
            size: 1
          }
        }
        int_val: 1
      }
    }
  }
}
node {
  name: "training/TFOptimizer/gradients/loss/dense_9_loss/Mean_grad/Reshape"
  op: "Reshape"
  input: "training/TFOptimizer/gradients/loss/mul_grad/tuple/control_dependency_1"
  input: "training/TFOptimizer/gradients/loss/dense_9_loss/Mean_grad/Reshape/shape"
  attr {
    key: "T"
    value {
      type: DT_FLOAT
    }
  }
  attr {
    key: "Tshape"
    value {
      type: DT_INT32
    }
  }
  attr {
    key: "_output_shapes"
    value {
      list {
        shape {
          dim {
            size: 1
          }
        }
      }
    }
  }
}
node {
  name: "training/TFOptimizer/gradients/loss/dense_9_loss/Mean_grad/Shape"
  op: "Shape"
  input: "loss/dense_9_loss/Neg"
  attr {
    key: "T"
    value {
      type: DT_FLOAT
    }
  }
  attr {
    key: "_output_shapes"
    value {
      list {
        shape {
          dim {
            size: 1
          }
        }
      }
    }
  }
  attr {
    key: "out_type"
    value {
      type: DT_INT32
    }
  }
}
node {
  name: "training/TFOptimizer/gradients/loss/dense_9_loss/Mean_grad/Tile"
  op: "Tile"
  input: "training/TFOptimizer/gradients/loss/dense_9_loss/Mean_grad/Reshape"
  input: "training/TFOptimizer/gradients/loss/dense_9_loss/Mean_grad/Shape"
  attr {
    key: "T"
    value {
      type: DT_FLOAT
    }
  }
  attr {
    key: "Tmultiples"
    value {
      type: DT_INT32
    }
  }
  attr {
    key: "_output_shapes"
    value {
      list {
        shape {
          dim {
            size: -1
          }
        }
      }
    }
  }
}
node {
  name: "training/TFOptimizer/gradients/loss/dense_9_loss/Mean_grad/Shape_1"
  op: "Shape"
  input: "loss/dense_9_loss/Neg"
  attr {
    key: "T"
    value {
      type: DT_FLOAT
    }
  }
  attr {
    key: "_output_shapes"
    value {
      list {
        shape {
          dim {
            size: 1
          }
        }
      }
    }
  }
  attr {
    key: "out_type"
    value {
      type: DT_INT32
    }
  }
}
node {
  name: "training/TFOptimizer/gradients/loss/dense_9_loss/Mean_grad/Shape_2"
  op: "Const"
  attr {
    key: "_output_shapes"
    value {
      list {
        shape {
          dim {
          }
        }
      }
    }
  }
  attr {
    key: "dtype"
    value {
      type: DT_INT32
    }
  }
  attr {
    key: "value"
    value {
      tensor {
        dtype: DT_INT32
        tensor_shape {
          dim {
          }
        }
      }
    }
  }
}
node {
  name: "training/TFOptimizer/gradients/loss/dense_9_loss/Mean_grad/Const"
  op: "Const"
  attr {
    key: "_output_shapes"
    value {
      list {
        shape {
          dim {
            size: 1
          }
        }
      }
    }
  }
  attr {
    key: "dtype"
    value {
      type: DT_INT32
    }
  }
  attr {
    key: "value"
    value {
      tensor {
        dtype: DT_INT32
        tensor_shape {
          dim {
            size: 1
          }
        }
        int_val: 0
      }
    }
  }
}
node {
  name: "training/TFOptimizer/gradients/loss/dense_9_loss/Mean_grad/Prod"
  op: "Prod"
  input: "training/TFOptimizer/gradients/loss/dense_9_loss/Mean_grad/Shape_1"
  input: "training/TFOptimizer/gradients/loss/dense_9_loss/Mean_grad/Const"
  attr {
    key: "T"
    value {
      type: DT_INT32
    }
  }
  attr {
    key: "Tidx"
    value {
      type: DT_INT32
    }
  }
  attr {
    key: "_output_shapes"
    value {
      list {
        shape {
        }
      }
    }
  }
  attr {
    key: "keep_dims"
    value {
      b: false
    }
  }
}
node {
  name: "training/TFOptimizer/gradients/loss/dense_9_loss/Mean_grad/Const_1"
  op: "Const"
  attr {
    key: "_output_shapes"
    value {
      list {
        shape {
          dim {
            size: 1
          }
        }
      }
    }
  }
  attr {
    key: "dtype"
    value {
      type: DT_INT32
    }
  }
  attr {
    key: "value"
    value {
      tensor {
        dtype: DT_INT32
        tensor_shape {
          dim {
            size: 1
          }
        }
        int_val: 0
      }
    }
  }
}
node {
  name: "training/TFOptimizer/gradients/loss/dense_9_loss/Mean_grad/Prod_1"
  op: "Prod"
  input: "training/TFOptimizer/gradients/loss/dense_9_loss/Mean_grad/Shape_2"
  input: "training/TFOptimizer/gradients/loss/dense_9_loss/Mean_grad/Const_1"
  attr {
    key: "T"
    value {
      type: DT_INT32
    }
  }
  attr {
    key: "Tidx"
    value {
      type: DT_INT32
    }
  }
  attr {
    key: "_output_shapes"
    value {
      list {
        shape {
        }
      }
    }
  }
  attr {
    key: "keep_dims"
    value {
      b: false
    }
  }
}
node {
  name: "training/TFOptimizer/gradients/loss/dense_9_loss/Mean_grad/Maximum/y"
  op: "Const"
  attr {
    key: "_output_shapes"
    value {
      list {
        shape {
        }
      }
    }
  }
  attr {
    key: "dtype"
    value {
      type: DT_INT32
    }
  }
  attr {
    key: "value"
    value {
      tensor {
        dtype: DT_INT32
        tensor_shape {
        }
        int_val: 1
      }
    }
  }
}
node {
  name: "training/TFOptimizer/gradients/loss/dense_9_loss/Mean_grad/Maximum"
  op: "Maximum"
  input: "training/TFOptimizer/gradients/loss/dense_9_loss/Mean_grad/Prod_1"
  input: "training/TFOptimizer/gradients/loss/dense_9_loss/Mean_grad/Maximum/y"
  attr {
    key: "T"
    value {
      type: DT_INT32
    }
  }
  attr {
    key: "_output_shapes"
    value {
      list {
        shape {
        }
      }
    }
  }
}
node {
  name: "training/TFOptimizer/gradients/loss/dense_9_loss/Mean_grad/floordiv"
  op: "FloorDiv"
  input: "training/TFOptimizer/gradients/loss/dense_9_loss/Mean_grad/Prod"
  input: "training/TFOptimizer/gradients/loss/dense_9_loss/Mean_grad/Maximum"
  attr {
    key: "T"
    value {
      type: DT_INT32
    }
  }
  attr {
    key: "_output_shapes"
    value {
      list {
        shape {
        }
      }
    }
  }
}
node {
  name: "training/TFOptimizer/gradients/loss/dense_9_loss/Mean_grad/Cast"
  op: "Cast"
  input: "training/TFOptimizer/gradients/loss/dense_9_loss/Mean_grad/floordiv"
  attr {
    key: "DstT"
    value {
      type: DT_FLOAT
    }
  }
  attr {
    key: "SrcT"
    value {
      type: DT_INT32
    }
  }
  attr {
    key: "Truncate"
    value {
      b: false
    }
  }
  attr {
    key: "_output_shapes"
    value {
      list {
        shape {
        }
      }
    }
  }
}
node {
  name: "training/TFOptimizer/gradients/loss/dense_9_loss/Mean_grad/truediv"
  op: "RealDiv"
  input: "training/TFOptimizer/gradients/loss/dense_9_loss/Mean_grad/Tile"
  input: "training/TFOptimizer/gradients/loss/dense_9_loss/Mean_grad/Cast"
  attr {
    key: "T"
    value {
      type: DT_FLOAT
    }
  }
  attr {
    key: "_output_shapes"
    value {
      list {
        shape {
          dim {
            size: -1
          }
        }
      }
    }
  }
}
node {
  name: "training/TFOptimizer/gradients/loss/dense_9_loss/Neg_grad/Neg"
  op: "Neg"
  input: "training/TFOptimizer/gradients/loss/dense_9_loss/Mean_grad/truediv"
  attr {
    key: "T"
    value {
      type: DT_FLOAT
    }
  }
  attr {
    key: "_output_shapes"
    value {
      list {
        shape {
          dim {
            size: -1
          }
        }
      }
    }
  }
}
node {
  name: "training/TFOptimizer/gradients/loss/dense_9_loss/Sum_1_grad/Shape"
  op: "Shape"
  input: "loss/dense_9_loss/mul"
  attr {
    key: "T"
    value {
      type: DT_FLOAT
    }
  }
  attr {
    key: "_output_shapes"
    value {
      list {
        shape {
          dim {
            size: 2
          }
        }
      }
    }
  }
  attr {
    key: "out_type"
    value {
      type: DT_INT32
    }
  }
}
node {
  name: "training/TFOptimizer/gradients/loss/dense_9_loss/Sum_1_grad/Size"
  op: "Const"
  attr {
    key: "_class"
    value {
      list {
        s: "loc:@training/TFOptimizer/gradients/loss/dense_9_loss/Sum_1_grad/Shape"
      }
    }
  }
  attr {
    key: "_output_shapes"
    value {
      list {
        shape {
        }
      }
    }
  }
  attr {
    key: "dtype"
    value {
      type: DT_INT32
    }
  }
  attr {
    key: "value"
    value {
      tensor {
        dtype: DT_INT32
        tensor_shape {
        }
        int_val: 2
      }
    }
  }
}
node {
  name: "training/TFOptimizer/gradients/loss/dense_9_loss/Sum_1_grad/add"
  op: "Add"
  input: "loss/dense_9_loss/Sum_1/reduction_indices"
  input: "training/TFOptimizer/gradients/loss/dense_9_loss/Sum_1_grad/Size"
  attr {
    key: "T"
    value {
      type: DT_INT32
    }
  }
  attr {
    key: "_class"
    value {
      list {
        s: "loc:@training/TFOptimizer/gradients/loss/dense_9_loss/Sum_1_grad/Shape"
      }
    }
  }
  attr {
    key: "_output_shapes"
    value {
      list {
        shape {
        }
      }
    }
  }
}
node {
  name: "training/TFOptimizer/gradients/loss/dense_9_loss/Sum_1_grad/mod"
  op: "FloorMod"
  input: "training/TFOptimizer/gradients/loss/dense_9_loss/Sum_1_grad/add"
  input: "training/TFOptimizer/gradients/loss/dense_9_loss/Sum_1_grad/Size"
  attr {
    key: "T"
    value {
      type: DT_INT32
    }
  }
  attr {
    key: "_class"
    value {
      list {
        s: "loc:@training/TFOptimizer/gradients/loss/dense_9_loss/Sum_1_grad/Shape"
      }
    }
  }
  attr {
    key: "_output_shapes"
    value {
      list {
        shape {
        }
      }
    }
  }
}
node {
  name: "training/TFOptimizer/gradients/loss/dense_9_loss/Sum_1_grad/Shape_1"
  op: "Const"
  attr {
    key: "_class"
    value {
      list {
        s: "loc:@training/TFOptimizer/gradients/loss/dense_9_loss/Sum_1_grad/Shape"
      }
    }
  }
  attr {
    key: "_output_shapes"
    value {
      list {
        shape {
          dim {
          }
        }
      }
    }
  }
  attr {
    key: "dtype"
    value {
      type: DT_INT32
    }
  }
  attr {
    key: "value"
    value {
      tensor {
        dtype: DT_INT32
        tensor_shape {
          dim {
          }
        }
      }
    }
  }
}
node {
  name: "training/TFOptimizer/gradients/loss/dense_9_loss/Sum_1_grad/range/start"
  op: "Const"
  attr {
    key: "_class"
    value {
      list {
        s: "loc:@training/TFOptimizer/gradients/loss/dense_9_loss/Sum_1_grad/Shape"
      }
    }
  }
  attr {
    key: "_output_shapes"
    value {
      list {
        shape {
        }
      }
    }
  }
  attr {
    key: "dtype"
    value {
      type: DT_INT32
    }
  }
  attr {
    key: "value"
    value {
      tensor {
        dtype: DT_INT32
        tensor_shape {
        }
        int_val: 0
      }
    }
  }
}
node {
  name: "training/TFOptimizer/gradients/loss/dense_9_loss/Sum_1_grad/range/delta"
  op: "Const"
  attr {
    key: "_class"
    value {
      list {
        s: "loc:@training/TFOptimizer/gradients/loss/dense_9_loss/Sum_1_grad/Shape"
      }
    }
  }
  attr {
    key: "_output_shapes"
    value {
      list {
        shape {
        }
      }
    }
  }
  attr {
    key: "dtype"
    value {
      type: DT_INT32
    }
  }
  attr {
    key: "value"
    value {
      tensor {
        dtype: DT_INT32
        tensor_shape {
        }
        int_val: 1
      }
    }
  }
}
node {
  name: "training/TFOptimizer/gradients/loss/dense_9_loss/Sum_1_grad/range"
  op: "Range"
  input: "training/TFOptimizer/gradients/loss/dense_9_loss/Sum_1_grad/range/start"
  input: "training/TFOptimizer/gradients/loss/dense_9_loss/Sum_1_grad/Size"
  input: "training/TFOptimizer/gradients/loss/dense_9_loss/Sum_1_grad/range/delta"
  attr {
    key: "Tidx"
    value {
      type: DT_INT32
    }
  }
  attr {
    key: "_class"
    value {
      list {
        s: "loc:@training/TFOptimizer/gradients/loss/dense_9_loss/Sum_1_grad/Shape"
      }
    }
  }
  attr {
    key: "_output_shapes"
    value {
      list {
        shape {
          dim {
            size: 2
          }
        }
      }
    }
  }
}
node {
  name: "training/TFOptimizer/gradients/loss/dense_9_loss/Sum_1_grad/Fill/value"
  op: "Const"
  attr {
    key: "_class"
    value {
      list {
        s: "loc:@training/TFOptimizer/gradients/loss/dense_9_loss/Sum_1_grad/Shape"
      }
    }
  }
  attr {
    key: "_output_shapes"
    value {
      list {
        shape {
        }
      }
    }
  }
  attr {
    key: "dtype"
    value {
      type: DT_INT32
    }
  }
  attr {
    key: "value"
    value {
      tensor {
        dtype: DT_INT32
        tensor_shape {
        }
        int_val: 1
      }
    }
  }
}
node {
  name: "training/TFOptimizer/gradients/loss/dense_9_loss/Sum_1_grad/Fill"
  op: "Fill"
  input: "training/TFOptimizer/gradients/loss/dense_9_loss/Sum_1_grad/Shape_1"
  input: "training/TFOptimizer/gradients/loss/dense_9_loss/Sum_1_grad/Fill/value"
  attr {
    key: "T"
    value {
      type: DT_INT32
    }
  }
  attr {
    key: "_class"
    value {
      list {
        s: "loc:@training/TFOptimizer/gradients/loss/dense_9_loss/Sum_1_grad/Shape"
      }
    }
  }
  attr {
    key: "_output_shapes"
    value {
      list {
        shape {
        }
      }
    }
  }
  attr {
    key: "index_type"
    value {
      type: DT_INT32
    }
  }
}
node {
  name: "training/TFOptimizer/gradients/loss/dense_9_loss/Sum_1_grad/DynamicStitch"
  op: "DynamicStitch"
  input: "training/TFOptimizer/gradients/loss/dense_9_loss/Sum_1_grad/range"
  input: "training/TFOptimizer/gradients/loss/dense_9_loss/Sum_1_grad/mod"
  input: "training/TFOptimizer/gradients/loss/dense_9_loss/Sum_1_grad/Shape"
  input: "training/TFOptimizer/gradients/loss/dense_9_loss/Sum_1_grad/Fill"
  attr {
    key: "N"
    value {
      i: 2
    }
  }
  attr {
    key: "T"
    value {
      type: DT_INT32
    }
  }
  attr {
    key: "_class"
    value {
      list {
        s: "loc:@training/TFOptimizer/gradients/loss/dense_9_loss/Sum_1_grad/Shape"
      }
    }
  }
  attr {
    key: "_output_shapes"
    value {
      list {
        shape {
          dim {
            size: 2
          }
        }
      }
    }
  }
}
node {
  name: "training/TFOptimizer/gradients/loss/dense_9_loss/Sum_1_grad/Maximum/y"
  op: "Const"
  attr {
    key: "_class"
    value {
      list {
        s: "loc:@training/TFOptimizer/gradients/loss/dense_9_loss/Sum_1_grad/Shape"
      }
    }
  }
  attr {
    key: "_output_shapes"
    value {
      list {
        shape {
        }
      }
    }
  }
  attr {
    key: "dtype"
    value {
      type: DT_INT32
    }
  }
  attr {
    key: "value"
    value {
      tensor {
        dtype: DT_INT32
        tensor_shape {
        }
        int_val: 1
      }
    }
  }
}
node {
  name: "training/TFOptimizer/gradients/loss/dense_9_loss/Sum_1_grad/Maximum"
  op: "Maximum"
  input: "training/TFOptimizer/gradients/loss/dense_9_loss/Sum_1_grad/DynamicStitch"
  input: "training/TFOptimizer/gradients/loss/dense_9_loss/Sum_1_grad/Maximum/y"
  attr {
    key: "T"
    value {
      type: DT_INT32
    }
  }
  attr {
    key: "_class"
    value {
      list {
        s: "loc:@training/TFOptimizer/gradients/loss/dense_9_loss/Sum_1_grad/Shape"
      }
    }
  }
  attr {
    key: "_output_shapes"
    value {
      list {
        shape {
          dim {
            size: 2
          }
        }
      }
    }
  }
}
node {
  name: "training/TFOptimizer/gradients/loss/dense_9_loss/Sum_1_grad/floordiv"
  op: "FloorDiv"
  input: "training/TFOptimizer/gradients/loss/dense_9_loss/Sum_1_grad/Shape"
  input: "training/TFOptimizer/gradients/loss/dense_9_loss/Sum_1_grad/Maximum"
  attr {
    key: "T"
    value {
      type: DT_INT32
    }
  }
  attr {
    key: "_class"
    value {
      list {
        s: "loc:@training/TFOptimizer/gradients/loss/dense_9_loss/Sum_1_grad/Shape"
      }
    }
  }
  attr {
    key: "_output_shapes"
    value {
      list {
        shape {
          dim {
            size: 2
          }
        }
      }
    }
  }
}
node {
  name: "training/TFOptimizer/gradients/loss/dense_9_loss/Sum_1_grad/Reshape"
  op: "Reshape"
  input: "training/TFOptimizer/gradients/loss/dense_9_loss/Neg_grad/Neg"
  input: "training/TFOptimizer/gradients/loss/dense_9_loss/Sum_1_grad/DynamicStitch"
  attr {
    key: "T"
    value {
      type: DT_FLOAT
    }
  }
  attr {
    key: "Tshape"
    value {
      type: DT_INT32
    }
  }
  attr {
    key: "_output_shapes"
    value {
      list {
        shape {
          dim {
            size: -1
          }
          dim {
            size: -1
          }
        }
      }
    }
  }
}
node {
  name: "training/TFOptimizer/gradients/loss/dense_9_loss/Sum_1_grad/Tile"
  op: "Tile"
  input: "training/TFOptimizer/gradients/loss/dense_9_loss/Sum_1_grad/Reshape"
  input: "training/TFOptimizer/gradients/loss/dense_9_loss/Sum_1_grad/floordiv"
  attr {
    key: "T"
    value {
      type: DT_FLOAT
    }
  }
  attr {
    key: "Tmultiples"
    value {
      type: DT_INT32
    }
  }
  attr {
    key: "_output_shapes"
    value {
      list {
        shape {
          dim {
            size: -1
          }
          dim {
            size: 50
          }
        }
      }
    }
  }
}
node {
  name: "training/TFOptimizer/gradients/loss/dense_9_loss/mul_grad/Shape"
  op: "Shape"
  input: "IteratorGetNext:1"
  attr {
    key: "T"
    value {
      type: DT_FLOAT
    }
  }
  attr {
    key: "_output_shapes"
    value {
      list {
        shape {
          dim {
            size: 2
          }
        }
      }
    }
  }
  attr {
    key: "out_type"
    value {
      type: DT_INT32
    }
  }
}
node {
  name: "training/TFOptimizer/gradients/loss/dense_9_loss/mul_grad/Shape_1"
  op: "Shape"
  input: "loss/dense_9_loss/Log"
  attr {
    key: "T"
    value {
      type: DT_FLOAT
    }
  }
  attr {
    key: "_output_shapes"
    value {
      list {
        shape {
          dim {
            size: 2
          }
        }
      }
    }
  }
  attr {
    key: "out_type"
    value {
      type: DT_INT32
    }
  }
}
node {
  name: "training/TFOptimizer/gradients/loss/dense_9_loss/mul_grad/BroadcastGradientArgs"
  op: "BroadcastGradientArgs"
  input: "training/TFOptimizer/gradients/loss/dense_9_loss/mul_grad/Shape"
  input: "training/TFOptimizer/gradients/loss/dense_9_loss/mul_grad/Shape_1"
  attr {
    key: "T"
    value {
      type: DT_INT32
    }
  }
  attr {
    key: "_output_shapes"
    value {
      list {
        shape {
          dim {
            size: -1
          }
        }
        shape {
          dim {
            size: -1
          }
        }
      }
    }
  }
}
node {
  name: "training/TFOptimizer/gradients/loss/dense_9_loss/mul_grad/Mul"
  op: "Mul"
  input: "training/TFOptimizer/gradients/loss/dense_9_loss/Sum_1_grad/Tile"
  input: "loss/dense_9_loss/Log"
  attr {
    key: "T"
    value {
      type: DT_FLOAT
    }
  }
  attr {
    key: "_output_shapes"
    value {
      list {
        shape {
          dim {
            size: -1
          }
          dim {
            size: 50
          }
        }
      }
    }
  }
}
node {
  name: "training/TFOptimizer/gradients/loss/dense_9_loss/mul_grad/Sum"
  op: "Sum"
  input: "training/TFOptimizer/gradients/loss/dense_9_loss/mul_grad/Mul"
  input: "training/TFOptimizer/gradients/loss/dense_9_loss/mul_grad/BroadcastGradientArgs"
  attr {
    key: "T"
    value {
      type: DT_FLOAT
    }
  }
  attr {
    key: "Tidx"
    value {
      type: DT_INT32
    }
  }
  attr {
    key: "_output_shapes"
    value {
      list {
        shape {
          unknown_rank: true
        }
      }
    }
  }
  attr {
    key: "keep_dims"
    value {
      b: false
    }
  }
}
node {
  name: "training/TFOptimizer/gradients/loss/dense_9_loss/mul_grad/Reshape"
  op: "Reshape"
  input: "training/TFOptimizer/gradients/loss/dense_9_loss/mul_grad/Sum"
  input: "training/TFOptimizer/gradients/loss/dense_9_loss/mul_grad/Shape"
  attr {
    key: "T"
    value {
      type: DT_FLOAT
    }
  }
  attr {
    key: "Tshape"
    value {
      type: DT_INT32
    }
  }
  attr {
    key: "_output_shapes"
    value {
      list {
        shape {
          dim {
            size: -1
          }
          dim {
            size: 50
          }
        }
      }
    }
  }
}
node {
  name: "training/TFOptimizer/gradients/loss/dense_9_loss/mul_grad/Mul_1"
  op: "Mul"
  input: "IteratorGetNext:1"
  input: "training/TFOptimizer/gradients/loss/dense_9_loss/Sum_1_grad/Tile"
  attr {
    key: "T"
    value {
      type: DT_FLOAT
    }
  }
  attr {
    key: "_output_shapes"
    value {
      list {
        shape {
          dim {
            size: -1
          }
          dim {
            size: 50
          }
        }
      }
    }
  }
}
node {
  name: "training/TFOptimizer/gradients/loss/dense_9_loss/mul_grad/Sum_1"
  op: "Sum"
  input: "training/TFOptimizer/gradients/loss/dense_9_loss/mul_grad/Mul_1"
  input: "training/TFOptimizer/gradients/loss/dense_9_loss/mul_grad/BroadcastGradientArgs:1"
  attr {
    key: "T"
    value {
      type: DT_FLOAT
    }
  }
  attr {
    key: "Tidx"
    value {
      type: DT_INT32
    }
  }
  attr {
    key: "_output_shapes"
    value {
      list {
        shape {
          unknown_rank: true
        }
      }
    }
  }
  attr {
    key: "keep_dims"
    value {
      b: false
    }
  }
}
node {
  name: "training/TFOptimizer/gradients/loss/dense_9_loss/mul_grad/Reshape_1"
  op: "Reshape"
  input: "training/TFOptimizer/gradients/loss/dense_9_loss/mul_grad/Sum_1"
  input: "training/TFOptimizer/gradients/loss/dense_9_loss/mul_grad/Shape_1"
  attr {
    key: "T"
    value {
      type: DT_FLOAT
    }
  }
  attr {
    key: "Tshape"
    value {
      type: DT_INT32
    }
  }
  attr {
    key: "_output_shapes"
    value {
      list {
        shape {
          dim {
            size: -1
          }
          dim {
            size: 50
          }
        }
      }
    }
  }
}
node {
  name: "training/TFOptimizer/gradients/loss/dense_9_loss/mul_grad/tuple/group_deps"
  op: "NoOp"
  input: "^training/TFOptimizer/gradients/loss/dense_9_loss/mul_grad/Reshape"
  input: "^training/TFOptimizer/gradients/loss/dense_9_loss/mul_grad/Reshape_1"
}
node {
  name: "training/TFOptimizer/gradients/loss/dense_9_loss/mul_grad/tuple/control_dependency"
  op: "Identity"
  input: "training/TFOptimizer/gradients/loss/dense_9_loss/mul_grad/Reshape"
  input: "^training/TFOptimizer/gradients/loss/dense_9_loss/mul_grad/tuple/group_deps"
  attr {
    key: "T"
    value {
      type: DT_FLOAT
    }
  }
  attr {
    key: "_class"
    value {
      list {
        s: "loc:@training/TFOptimizer/gradients/loss/dense_9_loss/mul_grad/Reshape"
      }
    }
  }
  attr {
    key: "_output_shapes"
    value {
      list {
        shape {
          dim {
            size: -1
          }
          dim {
            size: 50
          }
        }
      }
    }
  }
}
node {
  name: "training/TFOptimizer/gradients/loss/dense_9_loss/mul_grad/tuple/control_dependency_1"
  op: "Identity"
  input: "training/TFOptimizer/gradients/loss/dense_9_loss/mul_grad/Reshape_1"
  input: "^training/TFOptimizer/gradients/loss/dense_9_loss/mul_grad/tuple/group_deps"
  attr {
    key: "T"
    value {
      type: DT_FLOAT
    }
  }
  attr {
    key: "_class"
    value {
      list {
        s: "loc:@training/TFOptimizer/gradients/loss/dense_9_loss/mul_grad/Reshape_1"
      }
    }
  }
  attr {
    key: "_output_shapes"
    value {
      list {
        shape {
          dim {
            size: -1
          }
          dim {
            size: 50
          }
        }
      }
    }
  }
}
node {
  name: "training/TFOptimizer/gradients/loss/dense_9_loss/Log_grad/Reciprocal"
  op: "Reciprocal"
  input: "loss/dense_9_loss/clip_by_value"
  input: "^training/TFOptimizer/gradients/loss/dense_9_loss/mul_grad/tuple/control_dependency_1"
  attr {
    key: "T"
    value {
      type: DT_FLOAT
    }
  }
  attr {
    key: "_output_shapes"
    value {
      list {
        shape {
          dim {
            size: -1
          }
          dim {
            size: 50
          }
        }
      }
    }
  }
}
node {
  name: "training/TFOptimizer/gradients/loss/dense_9_loss/Log_grad/mul"
  op: "Mul"
  input: "training/TFOptimizer/gradients/loss/dense_9_loss/mul_grad/tuple/control_dependency_1"
  input: "training/TFOptimizer/gradients/loss/dense_9_loss/Log_grad/Reciprocal"
  attr {
    key: "T"
    value {
      type: DT_FLOAT
    }
  }
  attr {
    key: "_output_shapes"
    value {
      list {
        shape {
          dim {
            size: -1
          }
          dim {
            size: 50
          }
        }
      }
    }
  }
}
node {
  name: "training/TFOptimizer/gradients/loss/dense_9_loss/clip_by_value_grad/Shape"
  op: "Shape"
  input: "loss/dense_9_loss/clip_by_value/Minimum"
  attr {
    key: "T"
    value {
      type: DT_FLOAT
    }
  }
  attr {
    key: "_output_shapes"
    value {
      list {
        shape {
          dim {
            size: 2
          }
        }
      }
    }
  }
  attr {
    key: "out_type"
    value {
      type: DT_INT32
    }
  }
}
node {
  name: "training/TFOptimizer/gradients/loss/dense_9_loss/clip_by_value_grad/Shape_1"
  op: "Const"
  attr {
    key: "_output_shapes"
    value {
      list {
        shape {
          dim {
          }
        }
      }
    }
  }
  attr {
    key: "dtype"
    value {
      type: DT_INT32
    }
  }
  attr {
    key: "value"
    value {
      tensor {
        dtype: DT_INT32
        tensor_shape {
          dim {
          }
        }
      }
    }
  }
}
node {
  name: "training/TFOptimizer/gradients/loss/dense_9_loss/clip_by_value_grad/Shape_2"
  op: "Shape"
  input: "training/TFOptimizer/gradients/loss/dense_9_loss/Log_grad/mul"
  attr {
    key: "T"
    value {
      type: DT_FLOAT
    }
  }
  attr {
    key: "_output_shapes"
    value {
      list {
        shape {
          dim {
            size: 2
          }
        }
      }
    }
  }
  attr {
    key: "out_type"
    value {
      type: DT_INT32
    }
  }
}
node {
  name: "training/TFOptimizer/gradients/loss/dense_9_loss/clip_by_value_grad/zeros/Const"
  op: "Const"
  attr {
    key: "_output_shapes"
    value {
      list {
        shape {
        }
      }
    }
  }
  attr {
    key: "dtype"
    value {
      type: DT_FLOAT
    }
  }
  attr {
    key: "value"
    value {
      tensor {
        dtype: DT_FLOAT
        tensor_shape {
        }
        float_val: 0.0
      }
    }
  }
}
node {
  name: "training/TFOptimizer/gradients/loss/dense_9_loss/clip_by_value_grad/zeros"
  op: "Fill"
  input: "training/TFOptimizer/gradients/loss/dense_9_loss/clip_by_value_grad/Shape_2"
  input: "training/TFOptimizer/gradients/loss/dense_9_loss/clip_by_value_grad/zeros/Const"
  attr {
    key: "T"
    value {
      type: DT_FLOAT
    }
  }
  attr {
    key: "_output_shapes"
    value {
      list {
        shape {
          dim {
            size: -1
          }
          dim {
            size: 50
          }
        }
      }
    }
  }
  attr {
    key: "index_type"
    value {
      type: DT_INT32
    }
  }
}
node {
  name: "training/TFOptimizer/gradients/loss/dense_9_loss/clip_by_value_grad/GreaterEqual"
  op: "GreaterEqual"
  input: "loss/dense_9_loss/clip_by_value/Minimum"
  input: "loss/dense_9_loss/Const"
  attr {
    key: "T"
    value {
      type: DT_FLOAT
    }
  }
  attr {
    key: "_output_shapes"
    value {
      list {
        shape {
          dim {
            size: -1
          }
          dim {
            size: 50
          }
        }
      }
    }
  }
}
node {
  name: "training/TFOptimizer/gradients/loss/dense_9_loss/clip_by_value_grad/BroadcastGradientArgs"
  op: "BroadcastGradientArgs"
  input: "training/TFOptimizer/gradients/loss/dense_9_loss/clip_by_value_grad/Shape"
  input: "training/TFOptimizer/gradients/loss/dense_9_loss/clip_by_value_grad/Shape_1"
  attr {
    key: "T"
    value {
      type: DT_INT32
    }
  }
  attr {
    key: "_output_shapes"
    value {
      list {
        shape {
          dim {
            size: -1
          }
        }
        shape {
          dim {
            size: -1
          }
        }
      }
    }
  }
}
node {
  name: "training/TFOptimizer/gradients/loss/dense_9_loss/clip_by_value_grad/Select"
  op: "Select"
  input: "training/TFOptimizer/gradients/loss/dense_9_loss/clip_by_value_grad/GreaterEqual"
  input: "training/TFOptimizer/gradients/loss/dense_9_loss/Log_grad/mul"
  input: "training/TFOptimizer/gradients/loss/dense_9_loss/clip_by_value_grad/zeros"
  attr {
    key: "T"
    value {
      type: DT_FLOAT
    }
  }
  attr {
    key: "_output_shapes"
    value {
      list {
        shape {
          dim {
            size: -1
          }
          dim {
            size: 50
          }
        }
      }
    }
  }
}
node {
  name: "training/TFOptimizer/gradients/loss/dense_9_loss/clip_by_value_grad/Select_1"
  op: "Select"
  input: "training/TFOptimizer/gradients/loss/dense_9_loss/clip_by_value_grad/GreaterEqual"
  input: "training/TFOptimizer/gradients/loss/dense_9_loss/clip_by_value_grad/zeros"
  input: "training/TFOptimizer/gradients/loss/dense_9_loss/Log_grad/mul"
  attr {
    key: "T"
    value {
      type: DT_FLOAT
    }
  }
  attr {
    key: "_output_shapes"
    value {
      list {
        shape {
          dim {
            size: -1
          }
          dim {
            size: 50
          }
        }
      }
    }
  }
}
node {
  name: "training/TFOptimizer/gradients/loss/dense_9_loss/clip_by_value_grad/Sum"
  op: "Sum"
  input: "training/TFOptimizer/gradients/loss/dense_9_loss/clip_by_value_grad/Select"
  input: "training/TFOptimizer/gradients/loss/dense_9_loss/clip_by_value_grad/BroadcastGradientArgs"
  attr {
    key: "T"
    value {
      type: DT_FLOAT
    }
  }
  attr {
    key: "Tidx"
    value {
      type: DT_INT32
    }
  }
  attr {
    key: "_output_shapes"
    value {
      list {
        shape {
          unknown_rank: true
        }
      }
    }
  }
  attr {
    key: "keep_dims"
    value {
      b: false
    }
  }
}
node {
  name: "training/TFOptimizer/gradients/loss/dense_9_loss/clip_by_value_grad/Reshape"
  op: "Reshape"
  input: "training/TFOptimizer/gradients/loss/dense_9_loss/clip_by_value_grad/Sum"
  input: "training/TFOptimizer/gradients/loss/dense_9_loss/clip_by_value_grad/Shape"
  attr {
    key: "T"
    value {
      type: DT_FLOAT
    }
  }
  attr {
    key: "Tshape"
    value {
      type: DT_INT32
    }
  }
  attr {
    key: "_output_shapes"
    value {
      list {
        shape {
          dim {
            size: -1
          }
          dim {
            size: 50
          }
        }
      }
    }
  }
}
node {
  name: "training/TFOptimizer/gradients/loss/dense_9_loss/clip_by_value_grad/Sum_1"
  op: "Sum"
  input: "training/TFOptimizer/gradients/loss/dense_9_loss/clip_by_value_grad/Select_1"
  input: "training/TFOptimizer/gradients/loss/dense_9_loss/clip_by_value_grad/BroadcastGradientArgs:1"
  attr {
    key: "T"
    value {
      type: DT_FLOAT
    }
  }
  attr {
    key: "Tidx"
    value {
      type: DT_INT32
    }
  }
  attr {
    key: "_output_shapes"
    value {
      list {
        shape {
          unknown_rank: true
        }
      }
    }
  }
  attr {
    key: "keep_dims"
    value {
      b: false
    }
  }
}
node {
  name: "training/TFOptimizer/gradients/loss/dense_9_loss/clip_by_value_grad/Reshape_1"
  op: "Reshape"
  input: "training/TFOptimizer/gradients/loss/dense_9_loss/clip_by_value_grad/Sum_1"
  input: "training/TFOptimizer/gradients/loss/dense_9_loss/clip_by_value_grad/Shape_1"
  attr {
    key: "T"
    value {
      type: DT_FLOAT
    }
  }
  attr {
    key: "Tshape"
    value {
      type: DT_INT32
    }
  }
  attr {
    key: "_output_shapes"
    value {
      list {
        shape {
        }
      }
    }
  }
}
node {
  name: "training/TFOptimizer/gradients/loss/dense_9_loss/clip_by_value_grad/tuple/group_deps"
  op: "NoOp"
  input: "^training/TFOptimizer/gradients/loss/dense_9_loss/clip_by_value_grad/Reshape"
  input: "^training/TFOptimizer/gradients/loss/dense_9_loss/clip_by_value_grad/Reshape_1"
}
node {
  name: "training/TFOptimizer/gradients/loss/dense_9_loss/clip_by_value_grad/tuple/control_dependency"
  op: "Identity"
  input: "training/TFOptimizer/gradients/loss/dense_9_loss/clip_by_value_grad/Reshape"
  input: "^training/TFOptimizer/gradients/loss/dense_9_loss/clip_by_value_grad/tuple/group_deps"
  attr {
    key: "T"
    value {
      type: DT_FLOAT
    }
  }
  attr {
    key: "_class"
    value {
      list {
        s: "loc:@training/TFOptimizer/gradients/loss/dense_9_loss/clip_by_value_grad/Reshape"
      }
    }
  }
  attr {
    key: "_output_shapes"
    value {
      list {
        shape {
          dim {
            size: -1
          }
          dim {
            size: 50
          }
        }
      }
    }
  }
}
node {
  name: "training/TFOptimizer/gradients/loss/dense_9_loss/clip_by_value_grad/tuple/control_dependency_1"
  op: "Identity"
  input: "training/TFOptimizer/gradients/loss/dense_9_loss/clip_by_value_grad/Reshape_1"
  input: "^training/TFOptimizer/gradients/loss/dense_9_loss/clip_by_value_grad/tuple/group_deps"
  attr {
    key: "T"
    value {
      type: DT_FLOAT
    }
  }
  attr {
    key: "_class"
    value {
      list {
        s: "loc:@training/TFOptimizer/gradients/loss/dense_9_loss/clip_by_value_grad/Reshape_1"
      }
    }
  }
  attr {
    key: "_output_shapes"
    value {
      list {
        shape {
        }
      }
    }
  }
}
node {
  name: "training/TFOptimizer/gradients/loss/dense_9_loss/clip_by_value/Minimum_grad/Shape"
  op: "Shape"
  input: "loss/dense_9_loss/truediv"
  attr {
    key: "T"
    value {
      type: DT_FLOAT
    }
  }
  attr {
    key: "_output_shapes"
    value {
      list {
        shape {
          dim {
            size: 2
          }
        }
      }
    }
  }
  attr {
    key: "out_type"
    value {
      type: DT_INT32
    }
  }
}
node {
  name: "training/TFOptimizer/gradients/loss/dense_9_loss/clip_by_value/Minimum_grad/Shape_1"
  op: "Const"
  attr {
    key: "_output_shapes"
    value {
      list {
        shape {
          dim {
          }
        }
      }
    }
  }
  attr {
    key: "dtype"
    value {
      type: DT_INT32
    }
  }
  attr {
    key: "value"
    value {
      tensor {
        dtype: DT_INT32
        tensor_shape {
          dim {
          }
        }
      }
    }
  }
}
node {
  name: "training/TFOptimizer/gradients/loss/dense_9_loss/clip_by_value/Minimum_grad/Shape_2"
  op: "Shape"
  input: "training/TFOptimizer/gradients/loss/dense_9_loss/clip_by_value_grad/tuple/control_dependency"
  attr {
    key: "T"
    value {
      type: DT_FLOAT
    }
  }
  attr {
    key: "_output_shapes"
    value {
      list {
        shape {
          dim {
            size: 2
          }
        }
      }
    }
  }
  attr {
    key: "out_type"
    value {
      type: DT_INT32
    }
  }
}
node {
  name: "training/TFOptimizer/gradients/loss/dense_9_loss/clip_by_value/Minimum_grad/zeros/Const"
  op: "Const"
  attr {
    key: "_output_shapes"
    value {
      list {
        shape {
        }
      }
    }
  }
  attr {
    key: "dtype"
    value {
      type: DT_FLOAT
    }
  }
  attr {
    key: "value"
    value {
      tensor {
        dtype: DT_FLOAT
        tensor_shape {
        }
        float_val: 0.0
      }
    }
  }
}
node {
  name: "training/TFOptimizer/gradients/loss/dense_9_loss/clip_by_value/Minimum_grad/zeros"
  op: "Fill"
  input: "training/TFOptimizer/gradients/loss/dense_9_loss/clip_by_value/Minimum_grad/Shape_2"
  input: "training/TFOptimizer/gradients/loss/dense_9_loss/clip_by_value/Minimum_grad/zeros/Const"
  attr {
    key: "T"
    value {
      type: DT_FLOAT
    }
  }
  attr {
    key: "_output_shapes"
    value {
      list {
        shape {
          dim {
            size: -1
          }
          dim {
            size: 50
          }
        }
      }
    }
  }
  attr {
    key: "index_type"
    value {
      type: DT_INT32
    }
  }
}
node {
  name: "training/TFOptimizer/gradients/loss/dense_9_loss/clip_by_value/Minimum_grad/LessEqual"
  op: "LessEqual"
  input: "loss/dense_9_loss/truediv"
  input: "loss/dense_9_loss/sub"
  attr {
    key: "T"
    value {
      type: DT_FLOAT
    }
  }
  attr {
    key: "_output_shapes"
    value {
      list {
        shape {
          dim {
            size: -1
          }
          dim {
            size: 50
          }
        }
      }
    }
  }
}
node {
  name: "training/TFOptimizer/gradients/loss/dense_9_loss/clip_by_value/Minimum_grad/BroadcastGradientArgs"
  op: "BroadcastGradientArgs"
  input: "training/TFOptimizer/gradients/loss/dense_9_loss/clip_by_value/Minimum_grad/Shape"
  input: "training/TFOptimizer/gradients/loss/dense_9_loss/clip_by_value/Minimum_grad/Shape_1"
  attr {
    key: "T"
    value {
      type: DT_INT32
    }
  }
  attr {
    key: "_output_shapes"
    value {
      list {
        shape {
          dim {
            size: -1
          }
        }
        shape {
          dim {
            size: -1
          }
        }
      }
    }
  }
}
node {
  name: "training/TFOptimizer/gradients/loss/dense_9_loss/clip_by_value/Minimum_grad/Select"
  op: "Select"
  input: "training/TFOptimizer/gradients/loss/dense_9_loss/clip_by_value/Minimum_grad/LessEqual"
  input: "training/TFOptimizer/gradients/loss/dense_9_loss/clip_by_value_grad/tuple/control_dependency"
  input: "training/TFOptimizer/gradients/loss/dense_9_loss/clip_by_value/Minimum_grad/zeros"
  attr {
    key: "T"
    value {
      type: DT_FLOAT
    }
  }
  attr {
    key: "_output_shapes"
    value {
      list {
        shape {
          dim {
            size: -1
          }
          dim {
            size: 50
          }
        }
      }
    }
  }
}
node {
  name: "training/TFOptimizer/gradients/loss/dense_9_loss/clip_by_value/Minimum_grad/Select_1"
  op: "Select"
  input: "training/TFOptimizer/gradients/loss/dense_9_loss/clip_by_value/Minimum_grad/LessEqual"
  input: "training/TFOptimizer/gradients/loss/dense_9_loss/clip_by_value/Minimum_grad/zeros"
  input: "training/TFOptimizer/gradients/loss/dense_9_loss/clip_by_value_grad/tuple/control_dependency"
  attr {
    key: "T"
    value {
      type: DT_FLOAT
    }
  }
  attr {
    key: "_output_shapes"
    value {
      list {
        shape {
          dim {
            size: -1
          }
          dim {
            size: 50
          }
        }
      }
    }
  }
}
node {
  name: "training/TFOptimizer/gradients/loss/dense_9_loss/clip_by_value/Minimum_grad/Sum"
  op: "Sum"
  input: "training/TFOptimizer/gradients/loss/dense_9_loss/clip_by_value/Minimum_grad/Select"
  input: "training/TFOptimizer/gradients/loss/dense_9_loss/clip_by_value/Minimum_grad/BroadcastGradientArgs"
  attr {
    key: "T"
    value {
      type: DT_FLOAT
    }
  }
  attr {
    key: "Tidx"
    value {
      type: DT_INT32
    }
  }
  attr {
    key: "_output_shapes"
    value {
      list {
        shape {
          unknown_rank: true
        }
      }
    }
  }
  attr {
    key: "keep_dims"
    value {
      b: false
    }
  }
}
node {
  name: "training/TFOptimizer/gradients/loss/dense_9_loss/clip_by_value/Minimum_grad/Reshape"
  op: "Reshape"
  input: "training/TFOptimizer/gradients/loss/dense_9_loss/clip_by_value/Minimum_grad/Sum"
  input: "training/TFOptimizer/gradients/loss/dense_9_loss/clip_by_value/Minimum_grad/Shape"
  attr {
    key: "T"
    value {
      type: DT_FLOAT
    }
  }
  attr {
    key: "Tshape"
    value {
      type: DT_INT32
    }
  }
  attr {
    key: "_output_shapes"
    value {
      list {
        shape {
          dim {
            size: -1
          }
          dim {
            size: 50
          }
        }
      }
    }
  }
}
node {
  name: "training/TFOptimizer/gradients/loss/dense_9_loss/clip_by_value/Minimum_grad/Sum_1"
  op: "Sum"
  input: "training/TFOptimizer/gradients/loss/dense_9_loss/clip_by_value/Minimum_grad/Select_1"
  input: "training/TFOptimizer/gradients/loss/dense_9_loss/clip_by_value/Minimum_grad/BroadcastGradientArgs:1"
  attr {
    key: "T"
    value {
      type: DT_FLOAT
    }
  }
  attr {
    key: "Tidx"
    value {
      type: DT_INT32
    }
  }
  attr {
    key: "_output_shapes"
    value {
      list {
        shape {
          unknown_rank: true
        }
      }
    }
  }
  attr {
    key: "keep_dims"
    value {
      b: false
    }
  }
}
node {
  name: "training/TFOptimizer/gradients/loss/dense_9_loss/clip_by_value/Minimum_grad/Reshape_1"
  op: "Reshape"
  input: "training/TFOptimizer/gradients/loss/dense_9_loss/clip_by_value/Minimum_grad/Sum_1"
  input: "training/TFOptimizer/gradients/loss/dense_9_loss/clip_by_value/Minimum_grad/Shape_1"
  attr {
    key: "T"
    value {
      type: DT_FLOAT
    }
  }
  attr {
    key: "Tshape"
    value {
      type: DT_INT32
    }
  }
  attr {
    key: "_output_shapes"
    value {
      list {
        shape {
        }
      }
    }
  }
}
node {
  name: "training/TFOptimizer/gradients/loss/dense_9_loss/clip_by_value/Minimum_grad/tuple/group_deps"
  op: "NoOp"
  input: "^training/TFOptimizer/gradients/loss/dense_9_loss/clip_by_value/Minimum_grad/Reshape"
  input: "^training/TFOptimizer/gradients/loss/dense_9_loss/clip_by_value/Minimum_grad/Reshape_1"
}
node {
  name: "training/TFOptimizer/gradients/loss/dense_9_loss/clip_by_value/Minimum_grad/tuple/control_dependency"
  op: "Identity"
  input: "training/TFOptimizer/gradients/loss/dense_9_loss/clip_by_value/Minimum_grad/Reshape"
  input: "^training/TFOptimizer/gradients/loss/dense_9_loss/clip_by_value/Minimum_grad/tuple/group_deps"
  attr {
    key: "T"
    value {
      type: DT_FLOAT
    }
  }
  attr {
    key: "_class"
    value {
      list {
        s: "loc:@training/TFOptimizer/gradients/loss/dense_9_loss/clip_by_value/Minimum_grad/Reshape"
      }
    }
  }
  attr {
    key: "_output_shapes"
    value {
      list {
        shape {
          dim {
            size: -1
          }
          dim {
            size: 50
          }
        }
      }
    }
  }
}
node {
  name: "training/TFOptimizer/gradients/loss/dense_9_loss/clip_by_value/Minimum_grad/tuple/control_dependency_1"
  op: "Identity"
  input: "training/TFOptimizer/gradients/loss/dense_9_loss/clip_by_value/Minimum_grad/Reshape_1"
  input: "^training/TFOptimizer/gradients/loss/dense_9_loss/clip_by_value/Minimum_grad/tuple/group_deps"
  attr {
    key: "T"
    value {
      type: DT_FLOAT
    }
  }
  attr {
    key: "_class"
    value {
      list {
        s: "loc:@training/TFOptimizer/gradients/loss/dense_9_loss/clip_by_value/Minimum_grad/Reshape_1"
      }
    }
  }
  attr {
    key: "_output_shapes"
    value {
      list {
        shape {
        }
      }
    }
  }
}
node {
  name: "training/TFOptimizer/gradients/loss/dense_9_loss/truediv_grad/Shape"
  op: "Shape"
  input: "dense_9/Softmax"
  attr {
    key: "T"
    value {
      type: DT_FLOAT
    }
  }
  attr {
    key: "_output_shapes"
    value {
      list {
        shape {
          dim {
            size: 2
          }
        }
      }
    }
  }
  attr {
    key: "out_type"
    value {
      type: DT_INT32
    }
  }
}
node {
  name: "training/TFOptimizer/gradients/loss/dense_9_loss/truediv_grad/Shape_1"
  op: "Shape"
  input: "loss/dense_9_loss/Sum"
  attr {
    key: "T"
    value {
      type: DT_FLOAT
    }
  }
  attr {
    key: "_output_shapes"
    value {
      list {
        shape {
          dim {
            size: 2
          }
        }
      }
    }
  }
  attr {
    key: "out_type"
    value {
      type: DT_INT32
    }
  }
}
node {
  name: "training/TFOptimizer/gradients/loss/dense_9_loss/truediv_grad/BroadcastGradientArgs"
  op: "BroadcastGradientArgs"
  input: "training/TFOptimizer/gradients/loss/dense_9_loss/truediv_grad/Shape"
  input: "training/TFOptimizer/gradients/loss/dense_9_loss/truediv_grad/Shape_1"
  attr {
    key: "T"
    value {
      type: DT_INT32
    }
  }
  attr {
    key: "_output_shapes"
    value {
      list {
        shape {
          dim {
            size: -1
          }
        }
        shape {
          dim {
            size: -1
          }
        }
      }
    }
  }
}
node {
  name: "training/TFOptimizer/gradients/loss/dense_9_loss/truediv_grad/RealDiv"
  op: "RealDiv"
  input: "training/TFOptimizer/gradients/loss/dense_9_loss/clip_by_value/Minimum_grad/tuple/control_dependency"
  input: "loss/dense_9_loss/Sum"
  attr {
    key: "T"
    value {
      type: DT_FLOAT
    }
  }
  attr {
    key: "_output_shapes"
    value {
      list {
        shape {
          dim {
            size: -1
          }
          dim {
            size: 50
          }
        }
      }
    }
  }
}
node {
  name: "training/TFOptimizer/gradients/loss/dense_9_loss/truediv_grad/Sum"
  op: "Sum"
  input: "training/TFOptimizer/gradients/loss/dense_9_loss/truediv_grad/RealDiv"
  input: "training/TFOptimizer/gradients/loss/dense_9_loss/truediv_grad/BroadcastGradientArgs"
  attr {
    key: "T"
    value {
      type: DT_FLOAT
    }
  }
  attr {
    key: "Tidx"
    value {
      type: DT_INT32
    }
  }
  attr {
    key: "_output_shapes"
    value {
      list {
        shape {
          unknown_rank: true
        }
      }
    }
  }
  attr {
    key: "keep_dims"
    value {
      b: false
    }
  }
}
node {
  name: "training/TFOptimizer/gradients/loss/dense_9_loss/truediv_grad/Reshape"
  op: "Reshape"
  input: "training/TFOptimizer/gradients/loss/dense_9_loss/truediv_grad/Sum"
  input: "training/TFOptimizer/gradients/loss/dense_9_loss/truediv_grad/Shape"
  attr {
    key: "T"
    value {
      type: DT_FLOAT
    }
  }
  attr {
    key: "Tshape"
    value {
      type: DT_INT32
    }
  }
  attr {
    key: "_output_shapes"
    value {
      list {
        shape {
          dim {
            size: -1
          }
          dim {
            size: 50
          }
        }
      }
    }
  }
}
node {
  name: "training/TFOptimizer/gradients/loss/dense_9_loss/truediv_grad/Neg"
  op: "Neg"
  input: "dense_9/Softmax"
  attr {
    key: "T"
    value {
      type: DT_FLOAT
    }
  }
  attr {
    key: "_output_shapes"
    value {
      list {
        shape {
          dim {
            size: -1
          }
          dim {
            size: 50
          }
        }
      }
    }
  }
}
node {
  name: "training/TFOptimizer/gradients/loss/dense_9_loss/truediv_grad/RealDiv_1"
  op: "RealDiv"
  input: "training/TFOptimizer/gradients/loss/dense_9_loss/truediv_grad/Neg"
  input: "loss/dense_9_loss/Sum"
  attr {
    key: "T"
    value {
      type: DT_FLOAT
    }
  }
  attr {
    key: "_output_shapes"
    value {
      list {
        shape {
          dim {
            size: -1
          }
          dim {
            size: 50
          }
        }
      }
    }
  }
}
node {
  name: "training/TFOptimizer/gradients/loss/dense_9_loss/truediv_grad/RealDiv_2"
  op: "RealDiv"
  input: "training/TFOptimizer/gradients/loss/dense_9_loss/truediv_grad/RealDiv_1"
  input: "loss/dense_9_loss/Sum"
  attr {
    key: "T"
    value {
      type: DT_FLOAT
    }
  }
  attr {
    key: "_output_shapes"
    value {
      list {
        shape {
          dim {
            size: -1
          }
          dim {
            size: 50
          }
        }
      }
    }
  }
}
node {
  name: "training/TFOptimizer/gradients/loss/dense_9_loss/truediv_grad/mul"
  op: "Mul"
  input: "training/TFOptimizer/gradients/loss/dense_9_loss/clip_by_value/Minimum_grad/tuple/control_dependency"
  input: "training/TFOptimizer/gradients/loss/dense_9_loss/truediv_grad/RealDiv_2"
  attr {
    key: "T"
    value {
      type: DT_FLOAT
    }
  }
  attr {
    key: "_output_shapes"
    value {
      list {
        shape {
          dim {
            size: -1
          }
          dim {
            size: 50
          }
        }
      }
    }
  }
}
node {
  name: "training/TFOptimizer/gradients/loss/dense_9_loss/truediv_grad/Sum_1"
  op: "Sum"
  input: "training/TFOptimizer/gradients/loss/dense_9_loss/truediv_grad/mul"
  input: "training/TFOptimizer/gradients/loss/dense_9_loss/truediv_grad/BroadcastGradientArgs:1"
  attr {
    key: "T"
    value {
      type: DT_FLOAT
    }
  }
  attr {
    key: "Tidx"
    value {
      type: DT_INT32
    }
  }
  attr {
    key: "_output_shapes"
    value {
      list {
        shape {
          unknown_rank: true
        }
      }
    }
  }
  attr {
    key: "keep_dims"
    value {
      b: false
    }
  }
}
node {
  name: "training/TFOptimizer/gradients/loss/dense_9_loss/truediv_grad/Reshape_1"
  op: "Reshape"
  input: "training/TFOptimizer/gradients/loss/dense_9_loss/truediv_grad/Sum_1"
  input: "training/TFOptimizer/gradients/loss/dense_9_loss/truediv_grad/Shape_1"
  attr {
    key: "T"
    value {
      type: DT_FLOAT
    }
  }
  attr {
    key: "Tshape"
    value {
      type: DT_INT32
    }
  }
  attr {
    key: "_output_shapes"
    value {
      list {
        shape {
          dim {
            size: -1
          }
          dim {
            size: 1
          }
        }
      }
    }
  }
}
node {
  name: "training/TFOptimizer/gradients/loss/dense_9_loss/truediv_grad/tuple/group_deps"
  op: "NoOp"
  input: "^training/TFOptimizer/gradients/loss/dense_9_loss/truediv_grad/Reshape"
  input: "^training/TFOptimizer/gradients/loss/dense_9_loss/truediv_grad/Reshape_1"
}
node {
  name: "training/TFOptimizer/gradients/loss/dense_9_loss/truediv_grad/tuple/control_dependency"
  op: "Identity"
  input: "training/TFOptimizer/gradients/loss/dense_9_loss/truediv_grad/Reshape"
  input: "^training/TFOptimizer/gradients/loss/dense_9_loss/truediv_grad/tuple/group_deps"
  attr {
    key: "T"
    value {
      type: DT_FLOAT
    }
  }
  attr {
    key: "_class"
    value {
      list {
        s: "loc:@training/TFOptimizer/gradients/loss/dense_9_loss/truediv_grad/Reshape"
      }
    }
  }
  attr {
    key: "_output_shapes"
    value {
      list {
        shape {
          dim {
            size: -1
          }
          dim {
            size: 50
          }
        }
      }
    }
  }
}
node {
  name: "training/TFOptimizer/gradients/loss/dense_9_loss/truediv_grad/tuple/control_dependency_1"
  op: "Identity"
  input: "training/TFOptimizer/gradients/loss/dense_9_loss/truediv_grad/Reshape_1"
  input: "^training/TFOptimizer/gradients/loss/dense_9_loss/truediv_grad/tuple/group_deps"
  attr {
    key: "T"
    value {
      type: DT_FLOAT
    }
  }
  attr {
    key: "_class"
    value {
      list {
        s: "loc:@training/TFOptimizer/gradients/loss/dense_9_loss/truediv_grad/Reshape_1"
      }
    }
  }
  attr {
    key: "_output_shapes"
    value {
      list {
        shape {
          dim {
            size: -1
          }
          dim {
            size: 1
          }
        }
      }
    }
  }
}
node {
  name: "training/TFOptimizer/gradients/loss/dense_9_loss/Sum_grad/Shape"
  op: "Shape"
  input: "dense_9/Softmax"
  attr {
    key: "T"
    value {
      type: DT_FLOAT
    }
  }
  attr {
    key: "_output_shapes"
    value {
      list {
        shape {
          dim {
            size: 2
          }
        }
      }
    }
  }
  attr {
    key: "out_type"
    value {
      type: DT_INT32
    }
  }
}
node {
  name: "training/TFOptimizer/gradients/loss/dense_9_loss/Sum_grad/Size"
  op: "Const"
  attr {
    key: "_class"
    value {
      list {
        s: "loc:@training/TFOptimizer/gradients/loss/dense_9_loss/Sum_grad/Shape"
      }
    }
  }
  attr {
    key: "_output_shapes"
    value {
      list {
        shape {
        }
      }
    }
  }
  attr {
    key: "dtype"
    value {
      type: DT_INT32
    }
  }
  attr {
    key: "value"
    value {
      tensor {
        dtype: DT_INT32
        tensor_shape {
        }
        int_val: 2
      }
    }
  }
}
node {
  name: "training/TFOptimizer/gradients/loss/dense_9_loss/Sum_grad/add"
  op: "Add"
  input: "loss/dense_9_loss/Sum/reduction_indices"
  input: "training/TFOptimizer/gradients/loss/dense_9_loss/Sum_grad/Size"
  attr {
    key: "T"
    value {
      type: DT_INT32
    }
  }
  attr {
    key: "_class"
    value {
      list {
        s: "loc:@training/TFOptimizer/gradients/loss/dense_9_loss/Sum_grad/Shape"
      }
    }
  }
  attr {
    key: "_output_shapes"
    value {
      list {
        shape {
        }
      }
    }
  }
}
node {
  name: "training/TFOptimizer/gradients/loss/dense_9_loss/Sum_grad/mod"
  op: "FloorMod"
  input: "training/TFOptimizer/gradients/loss/dense_9_loss/Sum_grad/add"
  input: "training/TFOptimizer/gradients/loss/dense_9_loss/Sum_grad/Size"
  attr {
    key: "T"
    value {
      type: DT_INT32
    }
  }
  attr {
    key: "_class"
    value {
      list {
        s: "loc:@training/TFOptimizer/gradients/loss/dense_9_loss/Sum_grad/Shape"
      }
    }
  }
  attr {
    key: "_output_shapes"
    value {
      list {
        shape {
        }
      }
    }
  }
}
node {
  name: "training/TFOptimizer/gradients/loss/dense_9_loss/Sum_grad/Shape_1"
  op: "Const"
  attr {
    key: "_class"
    value {
      list {
        s: "loc:@training/TFOptimizer/gradients/loss/dense_9_loss/Sum_grad/Shape"
      }
    }
  }
  attr {
    key: "_output_shapes"
    value {
      list {
        shape {
          dim {
          }
        }
      }
    }
  }
  attr {
    key: "dtype"
    value {
      type: DT_INT32
    }
  }
  attr {
    key: "value"
    value {
      tensor {
        dtype: DT_INT32
        tensor_shape {
          dim {
          }
        }
      }
    }
  }
}
node {
  name: "training/TFOptimizer/gradients/loss/dense_9_loss/Sum_grad/range/start"
  op: "Const"
  attr {
    key: "_class"
    value {
      list {
        s: "loc:@training/TFOptimizer/gradients/loss/dense_9_loss/Sum_grad/Shape"
      }
    }
  }
  attr {
    key: "_output_shapes"
    value {
      list {
        shape {
        }
      }
    }
  }
  attr {
    key: "dtype"
    value {
      type: DT_INT32
    }
  }
  attr {
    key: "value"
    value {
      tensor {
        dtype: DT_INT32
        tensor_shape {
        }
        int_val: 0
      }
    }
  }
}
node {
  name: "training/TFOptimizer/gradients/loss/dense_9_loss/Sum_grad/range/delta"
  op: "Const"
  attr {
    key: "_class"
    value {
      list {
        s: "loc:@training/TFOptimizer/gradients/loss/dense_9_loss/Sum_grad/Shape"
      }
    }
  }
  attr {
    key: "_output_shapes"
    value {
      list {
        shape {
        }
      }
    }
  }
  attr {
    key: "dtype"
    value {
      type: DT_INT32
    }
  }
  attr {
    key: "value"
    value {
      tensor {
        dtype: DT_INT32
        tensor_shape {
        }
        int_val: 1
      }
    }
  }
}
node {
  name: "training/TFOptimizer/gradients/loss/dense_9_loss/Sum_grad/range"
  op: "Range"
  input: "training/TFOptimizer/gradients/loss/dense_9_loss/Sum_grad/range/start"
  input: "training/TFOptimizer/gradients/loss/dense_9_loss/Sum_grad/Size"
  input: "training/TFOptimizer/gradients/loss/dense_9_loss/Sum_grad/range/delta"
  attr {
    key: "Tidx"
    value {
      type: DT_INT32
    }
  }
  attr {
    key: "_class"
    value {
      list {
        s: "loc:@training/TFOptimizer/gradients/loss/dense_9_loss/Sum_grad/Shape"
      }
    }
  }
  attr {
    key: "_output_shapes"
    value {
      list {
        shape {
          dim {
            size: 2
          }
        }
      }
    }
  }
}
node {
  name: "training/TFOptimizer/gradients/loss/dense_9_loss/Sum_grad/Fill/value"
  op: "Const"
  attr {
    key: "_class"
    value {
      list {
        s: "loc:@training/TFOptimizer/gradients/loss/dense_9_loss/Sum_grad/Shape"
      }
    }
  }
  attr {
    key: "_output_shapes"
    value {
      list {
        shape {
        }
      }
    }
  }
  attr {
    key: "dtype"
    value {
      type: DT_INT32
    }
  }
  attr {
    key: "value"
    value {
      tensor {
        dtype: DT_INT32
        tensor_shape {
        }
        int_val: 1
      }
    }
  }
}
node {
  name: "training/TFOptimizer/gradients/loss/dense_9_loss/Sum_grad/Fill"
  op: "Fill"
  input: "training/TFOptimizer/gradients/loss/dense_9_loss/Sum_grad/Shape_1"
  input: "training/TFOptimizer/gradients/loss/dense_9_loss/Sum_grad/Fill/value"
  attr {
    key: "T"
    value {
      type: DT_INT32
    }
  }
  attr {
    key: "_class"
    value {
      list {
        s: "loc:@training/TFOptimizer/gradients/loss/dense_9_loss/Sum_grad/Shape"
      }
    }
  }
  attr {
    key: "_output_shapes"
    value {
      list {
        shape {
        }
      }
    }
  }
  attr {
    key: "index_type"
    value {
      type: DT_INT32
    }
  }
}
node {
  name: "training/TFOptimizer/gradients/loss/dense_9_loss/Sum_grad/DynamicStitch"
  op: "DynamicStitch"
  input: "training/TFOptimizer/gradients/loss/dense_9_loss/Sum_grad/range"
  input: "training/TFOptimizer/gradients/loss/dense_9_loss/Sum_grad/mod"
  input: "training/TFOptimizer/gradients/loss/dense_9_loss/Sum_grad/Shape"
  input: "training/TFOptimizer/gradients/loss/dense_9_loss/Sum_grad/Fill"
  attr {
    key: "N"
    value {
      i: 2
    }
  }
  attr {
    key: "T"
    value {
      type: DT_INT32
    }
  }
  attr {
    key: "_class"
    value {
      list {
        s: "loc:@training/TFOptimizer/gradients/loss/dense_9_loss/Sum_grad/Shape"
      }
    }
  }
  attr {
    key: "_output_shapes"
    value {
      list {
        shape {
          dim {
            size: 2
          }
        }
      }
    }
  }
}
node {
  name: "training/TFOptimizer/gradients/loss/dense_9_loss/Sum_grad/Maximum/y"
  op: "Const"
  attr {
    key: "_class"
    value {
      list {
        s: "loc:@training/TFOptimizer/gradients/loss/dense_9_loss/Sum_grad/Shape"
      }
    }
  }
  attr {
    key: "_output_shapes"
    value {
      list {
        shape {
        }
      }
    }
  }
  attr {
    key: "dtype"
    value {
      type: DT_INT32
    }
  }
  attr {
    key: "value"
    value {
      tensor {
        dtype: DT_INT32
        tensor_shape {
        }
        int_val: 1
      }
    }
  }
}
node {
  name: "training/TFOptimizer/gradients/loss/dense_9_loss/Sum_grad/Maximum"
  op: "Maximum"
  input: "training/TFOptimizer/gradients/loss/dense_9_loss/Sum_grad/DynamicStitch"
  input: "training/TFOptimizer/gradients/loss/dense_9_loss/Sum_grad/Maximum/y"
  attr {
    key: "T"
    value {
      type: DT_INT32
    }
  }
  attr {
    key: "_class"
    value {
      list {
        s: "loc:@training/TFOptimizer/gradients/loss/dense_9_loss/Sum_grad/Shape"
      }
    }
  }
  attr {
    key: "_output_shapes"
    value {
      list {
        shape {
          dim {
            size: 2
          }
        }
      }
    }
  }
}
node {
  name: "training/TFOptimizer/gradients/loss/dense_9_loss/Sum_grad/floordiv"
  op: "FloorDiv"
  input: "training/TFOptimizer/gradients/loss/dense_9_loss/Sum_grad/Shape"
  input: "training/TFOptimizer/gradients/loss/dense_9_loss/Sum_grad/Maximum"
  attr {
    key: "T"
    value {
      type: DT_INT32
    }
  }
  attr {
    key: "_class"
    value {
      list {
        s: "loc:@training/TFOptimizer/gradients/loss/dense_9_loss/Sum_grad/Shape"
      }
    }
  }
  attr {
    key: "_output_shapes"
    value {
      list {
        shape {
          dim {
            size: 2
          }
        }
      }
    }
  }
}
node {
  name: "training/TFOptimizer/gradients/loss/dense_9_loss/Sum_grad/Reshape"
  op: "Reshape"
  input: "training/TFOptimizer/gradients/loss/dense_9_loss/truediv_grad/tuple/control_dependency_1"
  input: "training/TFOptimizer/gradients/loss/dense_9_loss/Sum_grad/DynamicStitch"
  attr {
    key: "T"
    value {
      type: DT_FLOAT
    }
  }
  attr {
    key: "Tshape"
    value {
      type: DT_INT32
    }
  }
  attr {
    key: "_output_shapes"
    value {
      list {
        shape {
          dim {
            size: -1
          }
          dim {
            size: -1
          }
        }
      }
    }
  }
}
node {
  name: "training/TFOptimizer/gradients/loss/dense_9_loss/Sum_grad/Tile"
  op: "Tile"
  input: "training/TFOptimizer/gradients/loss/dense_9_loss/Sum_grad/Reshape"
  input: "training/TFOptimizer/gradients/loss/dense_9_loss/Sum_grad/floordiv"
  attr {
    key: "T"
    value {
      type: DT_FLOAT
    }
  }
  attr {
    key: "Tmultiples"
    value {
      type: DT_INT32
    }
  }
  attr {
    key: "_output_shapes"
    value {
      list {
        shape {
          dim {
            size: -1
          }
          dim {
            size: 50
          }
        }
      }
    }
  }
}
node {
  name: "training/TFOptimizer/gradients/AddN"
  op: "AddN"
  input: "training/TFOptimizer/gradients/loss/dense_9_loss/truediv_grad/tuple/control_dependency"
  input: "training/TFOptimizer/gradients/loss/dense_9_loss/Sum_grad/Tile"
  attr {
    key: "N"
    value {
      i: 2
    }
  }
  attr {
    key: "T"
    value {
      type: DT_FLOAT
    }
  }
  attr {
    key: "_class"
    value {
      list {
        s: "loc:@training/TFOptimizer/gradients/loss/dense_9_loss/truediv_grad/Reshape"
      }
    }
  }
  attr {
    key: "_output_shapes"
    value {
      list {
        shape {
          dim {
            size: -1
          }
          dim {
            size: 50
          }
        }
      }
    }
  }
}
node {
  name: "training/TFOptimizer/gradients/dense_9/Softmax_grad/mul"
  op: "Mul"
  input: "training/TFOptimizer/gradients/AddN"
  input: "dense_9/Softmax"
  attr {
    key: "T"
    value {
      type: DT_FLOAT
    }
  }
  attr {
    key: "_output_shapes"
    value {
      list {
        shape {
          dim {
            size: -1
          }
          dim {
            size: 50
          }
        }
      }
    }
  }
}
node {
  name: "training/TFOptimizer/gradients/dense_9/Softmax_grad/Sum/reduction_indices"
  op: "Const"
  attr {
    key: "_output_shapes"
    value {
      list {
        shape {
        }
      }
    }
  }
  attr {
    key: "dtype"
    value {
      type: DT_INT32
    }
  }
  attr {
    key: "value"
    value {
      tensor {
        dtype: DT_INT32
        tensor_shape {
        }
        int_val: -1
      }
    }
  }
}
node {
  name: "training/TFOptimizer/gradients/dense_9/Softmax_grad/Sum"
  op: "Sum"
  input: "training/TFOptimizer/gradients/dense_9/Softmax_grad/mul"
  input: "training/TFOptimizer/gradients/dense_9/Softmax_grad/Sum/reduction_indices"
  attr {
    key: "T"
    value {
      type: DT_FLOAT
    }
  }
  attr {
    key: "Tidx"
    value {
      type: DT_INT32
    }
  }
  attr {
    key: "_output_shapes"
    value {
      list {
        shape {
          dim {
            size: -1
          }
          dim {
            size: 1
          }
        }
      }
    }
  }
  attr {
    key: "keep_dims"
    value {
      b: true
    }
  }
}
node {
  name: "training/TFOptimizer/gradients/dense_9/Softmax_grad/sub"
  op: "Sub"
  input: "training/TFOptimizer/gradients/AddN"
  input: "training/TFOptimizer/gradients/dense_9/Softmax_grad/Sum"
  attr {
    key: "T"
    value {
      type: DT_FLOAT
    }
  }
  attr {
    key: "_output_shapes"
    value {
      list {
        shape {
          dim {
            size: -1
          }
          dim {
            size: 50
          }
        }
      }
    }
  }
}
node {
  name: "training/TFOptimizer/gradients/dense_9/Softmax_grad/mul_1"
  op: "Mul"
  input: "training/TFOptimizer/gradients/dense_9/Softmax_grad/sub"
  input: "dense_9/Softmax"
  attr {
    key: "T"
    value {
      type: DT_FLOAT
    }
  }
  attr {
    key: "_output_shapes"
    value {
      list {
        shape {
          dim {
            size: -1
          }
          dim {
            size: 50
          }
        }
      }
    }
  }
}
node {
  name: "training/TFOptimizer/gradients/dense_9/BiasAdd_grad/BiasAddGrad"
  op: "BiasAddGrad"
  input: "training/TFOptimizer/gradients/dense_9/Softmax_grad/mul_1"
  attr {
    key: "T"
    value {
      type: DT_FLOAT
    }
  }
  attr {
    key: "_output_shapes"
    value {
      list {
        shape {
          dim {
            size: 50
          }
        }
      }
    }
  }
  attr {
    key: "data_format"
    value {
      s: "NHWC"
    }
  }
}
node {
  name: "training/TFOptimizer/gradients/dense_9/BiasAdd_grad/tuple/group_deps"
  op: "NoOp"
  input: "^training/TFOptimizer/gradients/dense_9/BiasAdd_grad/BiasAddGrad"
  input: "^training/TFOptimizer/gradients/dense_9/Softmax_grad/mul_1"
}
node {
  name: "training/TFOptimizer/gradients/dense_9/BiasAdd_grad/tuple/control_dependency"
  op: "Identity"
  input: "training/TFOptimizer/gradients/dense_9/Softmax_grad/mul_1"
  input: "^training/TFOptimizer/gradients/dense_9/BiasAdd_grad/tuple/group_deps"
  attr {
    key: "T"
    value {
      type: DT_FLOAT
    }
  }
  attr {
    key: "_class"
    value {
      list {
        s: "loc:@training/TFOptimizer/gradients/dense_9/Softmax_grad/mul_1"
      }
    }
  }
  attr {
    key: "_output_shapes"
    value {
      list {
        shape {
          dim {
            size: -1
          }
          dim {
            size: 50
          }
        }
      }
    }
  }
}
node {
  name: "training/TFOptimizer/gradients/dense_9/BiasAdd_grad/tuple/control_dependency_1"
  op: "Identity"
  input: "training/TFOptimizer/gradients/dense_9/BiasAdd_grad/BiasAddGrad"
  input: "^training/TFOptimizer/gradients/dense_9/BiasAdd_grad/tuple/group_deps"
  attr {
    key: "T"
    value {
      type: DT_FLOAT
    }
  }
  attr {
    key: "_class"
    value {
      list {
        s: "loc:@training/TFOptimizer/gradients/dense_9/BiasAdd_grad/BiasAddGrad"
      }
    }
  }
  attr {
    key: "_output_shapes"
    value {
      list {
        shape {
          dim {
            size: 50
          }
        }
      }
    }
  }
}
node {
  name: "training/TFOptimizer/gradients/dense_9/MatMul_grad/MatMul"
  op: "MatMul"
  input: "training/TFOptimizer/gradients/dense_9/BiasAdd_grad/tuple/control_dependency"
  input: "dense_9/MatMul/ReadVariableOp"
  attr {
    key: "T"
    value {
      type: DT_FLOAT
    }
  }
  attr {
    key: "_output_shapes"
    value {
      list {
        shape {
          dim {
            size: -1
          }
          dim {
            size: 1452
          }
        }
      }
    }
  }
  attr {
    key: "transpose_a"
    value {
      b: false
    }
  }
  attr {
    key: "transpose_b"
    value {
      b: true
    }
  }
}
node {
  name: "training/TFOptimizer/gradients/dense_9/MatMul_grad/MatMul_1"
  op: "MatMul"
  input: "flatten/Reshape"
  input: "training/TFOptimizer/gradients/dense_9/BiasAdd_grad/tuple/control_dependency"
  attr {
    key: "T"
    value {
      type: DT_FLOAT
    }
  }
  attr {
    key: "_output_shapes"
    value {
      list {
        shape {
          dim {
            size: 1452
          }
          dim {
            size: 50
          }
        }
      }
    }
  }
  attr {
    key: "transpose_a"
    value {
      b: true
    }
  }
  attr {
    key: "transpose_b"
    value {
      b: false
    }
  }
}
node {
  name: "training/TFOptimizer/gradients/dense_9/MatMul_grad/tuple/group_deps"
  op: "NoOp"
  input: "^training/TFOptimizer/gradients/dense_9/MatMul_grad/MatMul"
  input: "^training/TFOptimizer/gradients/dense_9/MatMul_grad/MatMul_1"
}
node {
  name: "training/TFOptimizer/gradients/dense_9/MatMul_grad/tuple/control_dependency"
  op: "Identity"
  input: "training/TFOptimizer/gradients/dense_9/MatMul_grad/MatMul"
  input: "^training/TFOptimizer/gradients/dense_9/MatMul_grad/tuple/group_deps"
  attr {
    key: "T"
    value {
      type: DT_FLOAT
    }
  }
  attr {
    key: "_class"
    value {
      list {
        s: "loc:@training/TFOptimizer/gradients/dense_9/MatMul_grad/MatMul"
      }
    }
  }
  attr {
    key: "_output_shapes"
    value {
      list {
        shape {
          dim {
            size: -1
          }
          dim {
            size: 1452
          }
        }
      }
    }
  }
}
node {
  name: "training/TFOptimizer/gradients/dense_9/MatMul_grad/tuple/control_dependency_1"
  op: "Identity"
  input: "training/TFOptimizer/gradients/dense_9/MatMul_grad/MatMul_1"
  input: "^training/TFOptimizer/gradients/dense_9/MatMul_grad/tuple/group_deps"
  attr {
    key: "T"
    value {
      type: DT_FLOAT
    }
  }
  attr {
    key: "_class"
    value {
      list {
        s: "loc:@training/TFOptimizer/gradients/dense_9/MatMul_grad/MatMul_1"
      }
    }
  }
  attr {
    key: "_output_shapes"
    value {
      list {
        shape {
          dim {
            size: 1452
          }
          dim {
            size: 50
          }
        }
      }
    }
  }
}
node {
  name: "training/TFOptimizer/gradients/flatten/Reshape_grad/Shape"
  op: "Shape"
  input: "max_pooling2d/MaxPool"
  attr {
    key: "T"
    value {
      type: DT_FLOAT
    }
  }
  attr {
    key: "_output_shapes"
    value {
      list {
        shape {
          dim {
            size: 4
          }
        }
      }
    }
  }
  attr {
    key: "out_type"
    value {
      type: DT_INT32
    }
  }
}
node {
  name: "training/TFOptimizer/gradients/flatten/Reshape_grad/Reshape"
  op: "Reshape"
  input: "training/TFOptimizer/gradients/dense_9/MatMul_grad/tuple/control_dependency"
  input: "training/TFOptimizer/gradients/flatten/Reshape_grad/Shape"
  attr {
    key: "T"
    value {
      type: DT_FLOAT
    }
  }
  attr {
    key: "Tshape"
    value {
      type: DT_INT32
    }
  }
  attr {
    key: "_output_shapes"
    value {
      list {
        shape {
          dim {
            size: -1
          }
          dim {
            size: 22
          }
          dim {
            size: 22
          }
          dim {
            size: 3
          }
        }
      }
    }
  }
}
node {
  name: "training/TFOptimizer/gradients/max_pooling2d/MaxPool_grad/MaxPoolGrad"
  op: "MaxPoolGrad"
  input: "conv2d/Relu"
  input: "max_pooling2d/MaxPool"
  input: "training/TFOptimizer/gradients/flatten/Reshape_grad/Reshape"
  attr {
    key: "T"
    value {
      type: DT_FLOAT
    }
  }
  attr {
    key: "_output_shapes"
    value {
      list {
        shape {
          dim {
            size: -1
          }
          dim {
            size: 224
          }
          dim {
            size: 224
          }
          dim {
            size: 3
          }
        }
      }
    }
  }
  attr {
    key: "data_format"
    value {
      s: "NHWC"
    }
  }
  attr {
    key: "ksize"
    value {
      list {
        i: 1
        i: 10
        i: 10
        i: 1
      }
    }
  }
  attr {
    key: "padding"
    value {
      s: "VALID"
    }
  }
  attr {
    key: "strides"
    value {
      list {
        i: 1
        i: 10
        i: 10
        i: 1
      }
    }
  }
}
node {
  name: "training/TFOptimizer/gradients/conv2d/Relu_grad/ReluGrad"
  op: "ReluGrad"
  input: "training/TFOptimizer/gradients/max_pooling2d/MaxPool_grad/MaxPoolGrad"
  input: "conv2d/Relu"
  attr {
    key: "T"
    value {
      type: DT_FLOAT
    }
  }
  attr {
    key: "_output_shapes"
    value {
      list {
        shape {
          dim {
            size: -1
          }
          dim {
            size: 224
          }
          dim {
            size: 224
          }
          dim {
            size: 3
          }
        }
      }
    }
  }
}
node {
  name: "training/TFOptimizer/gradients/conv2d/BiasAdd_grad/BiasAddGrad"
  op: "BiasAddGrad"
  input: "training/TFOptimizer/gradients/conv2d/Relu_grad/ReluGrad"
  attr {
    key: "T"
    value {
      type: DT_FLOAT
    }
  }
  attr {
    key: "_output_shapes"
    value {
      list {
        shape {
          dim {
            size: 3
          }
        }
      }
    }
  }
  attr {
    key: "data_format"
    value {
      s: "NHWC"
    }
  }
}
node {
  name: "training/TFOptimizer/gradients/conv2d/BiasAdd_grad/tuple/group_deps"
  op: "NoOp"
  input: "^training/TFOptimizer/gradients/conv2d/BiasAdd_grad/BiasAddGrad"
  input: "^training/TFOptimizer/gradients/conv2d/Relu_grad/ReluGrad"
}
node {
  name: "training/TFOptimizer/gradients/conv2d/BiasAdd_grad/tuple/control_dependency"
  op: "Identity"
  input: "training/TFOptimizer/gradients/conv2d/Relu_grad/ReluGrad"
  input: "^training/TFOptimizer/gradients/conv2d/BiasAdd_grad/tuple/group_deps"
  attr {
    key: "T"
    value {
      type: DT_FLOAT
    }
  }
  attr {
    key: "_class"
    value {
      list {
        s: "loc:@training/TFOptimizer/gradients/conv2d/Relu_grad/ReluGrad"
      }
    }
  }
  attr {
    key: "_output_shapes"
    value {
      list {
        shape {
          dim {
            size: -1
          }
          dim {
            size: 224
          }
          dim {
            size: 224
          }
          dim {
            size: 3
          }
        }
      }
    }
  }
}
node {
  name: "training/TFOptimizer/gradients/conv2d/BiasAdd_grad/tuple/control_dependency_1"
  op: "Identity"
  input: "training/TFOptimizer/gradients/conv2d/BiasAdd_grad/BiasAddGrad"
  input: "^training/TFOptimizer/gradients/conv2d/BiasAdd_grad/tuple/group_deps"
  attr {
    key: "T"
    value {
      type: DT_FLOAT
    }
  }
  attr {
    key: "_class"
    value {
      list {
        s: "loc:@training/TFOptimizer/gradients/conv2d/BiasAdd_grad/BiasAddGrad"
      }
    }
  }
  attr {
    key: "_output_shapes"
    value {
      list {
        shape {
          dim {
            size: 3
          }
        }
      }
    }
  }
}
node {
  name: "training/TFOptimizer/gradients/conv2d/Conv2D_grad/ShapeN"
  op: "ShapeN"
  input: "IteratorGetNext"
  input: "conv2d/Conv2D/ReadVariableOp"
  attr {
    key: "N"
    value {
      i: 2
    }
  }
  attr {
    key: "T"
    value {
      type: DT_FLOAT
    }
  }
  attr {
    key: "_output_shapes"
    value {
      list {
        shape {
          dim {
            size: 4
          }
        }
        shape {
          dim {
            size: 4
          }
        }
      }
    }
  }
  attr {
    key: "out_type"
    value {
      type: DT_INT32
    }
  }
}
node {
  name: "training/TFOptimizer/gradients/conv2d/Conv2D_grad/Conv2DBackpropInput"
  op: "Conv2DBackpropInput"
  input: "training/TFOptimizer/gradients/conv2d/Conv2D_grad/ShapeN"
  input: "conv2d/Conv2D/ReadVariableOp"
  input: "training/TFOptimizer/gradients/conv2d/BiasAdd_grad/tuple/control_dependency"
  attr {
    key: "T"
    value {
      type: DT_FLOAT
    }
  }
  attr {
    key: "_output_shapes"
    value {
      list {
        shape {
          dim {
            size: -1
          }
          dim {
            size: 224
          }
          dim {
            size: 224
          }
          dim {
            size: 3
          }
        }
      }
    }
  }
  attr {
    key: "data_format"
    value {
      s: "NHWC"
    }
  }
  attr {
    key: "dilations"
    value {
      list {
        i: 1
        i: 1
        i: 1
        i: 1
      }
    }
  }
  attr {
    key: "padding"
    value {
      s: "SAME"
    }
  }
  attr {
    key: "strides"
    value {
      list {
        i: 1
        i: 1
        i: 1
        i: 1
      }
    }
  }
  attr {
    key: "use_cudnn_on_gpu"
    value {
      b: true
    }
  }
}
node {
  name: "training/TFOptimizer/gradients/conv2d/Conv2D_grad/Conv2DBackpropFilter"
  op: "Conv2DBackpropFilter"
  input: "IteratorGetNext"
  input: "training/TFOptimizer/gradients/conv2d/Conv2D_grad/ShapeN:1"
  input: "training/TFOptimizer/gradients/conv2d/BiasAdd_grad/tuple/control_dependency"
  attr {
    key: "T"
    value {
      type: DT_FLOAT
    }
  }
  attr {
    key: "_output_shapes"
    value {
      list {
        shape {
          dim {
            size: 20
          }
          dim {
            size: 20
          }
          dim {
            size: 3
          }
          dim {
…
      tensor {
        dtype: DT_INT32
        tensor_shape {
          dim {
            size: 1
          }
        }
        int_val: 15
      }
    }
  }
}
node {
  name: "report_uninitialized_variables_1/boolean_mask/strided_slice/stack"
  op: "Const"
  device: "/device:CPU:0"
  attr {
    key: "_output_shapes"
    value {
      list {
        shape {
          dim {
            size: 1
          }
        }
      }
    }
  }
  attr {
    key: "dtype"
    value {
      type: DT_INT32
    }
  }
  attr {
    key: "value"
    value {
      tensor {
        dtype: DT_INT32
        tensor_shape {
          dim {
            size: 1
          }
        }
        int_val: 0
      }
    }
  }
}
node {
  name: "report_uninitialized_variables_1/boolean_mask/strided_slice/stack_1"
  op: "Const"
  device: "/device:CPU:0"
  attr {
    key: "_output_shapes"
    value {
      list {
        shape {
          dim {
            size: 1
          }
        }
      }
    }
  }
  attr {
    key: "dtype"
    value {
      type: DT_INT32
    }
  }
  attr {
    key: "value"
    value {
      tensor {
        dtype: DT_INT32
        tensor_shape {
          dim {
            size: 1
          }
        }
        int_val: 1
      }
    }
  }
}
node {
  name: "report_uninitialized_variables_1/boolean_mask/strided_slice/stack_2"
  op: "Const"
  device: "/device:CPU:0"
  attr {
    key: "_output_shapes"
    value {
      list {
        shape {
          dim {
            size: 1
          }
        }
      }
    }
  }
  attr {
    key: "dtype"
    value {
      type: DT_INT32
    }
  }
  attr {
    key: "value"
    value {
      tensor {
        dtype: DT_INT32
        tensor_shape {
          dim {
            size: 1
          }
        }
        int_val: 1
      }
    }
  }
}
node {
  name: "report_uninitialized_variables_1/boolean_mask/strided_slice"
  op: "StridedSlice"
  input: "report_uninitialized_variables_1/boolean_mask/Shape"
  input: "report_uninitialized_variables_1/boolean_mask/strided_slice/stack"
  input: "report_uninitialized_variables_1/boolean_mask/strided_slice/stack_1"
  input: "report_uninitialized_variables_1/boolean_mask/strided_slice/stack_2"
  device: "/device:CPU:0"
  attr {
    key: "Index"
    value {
      type: DT_INT32
    }
  }
  attr {
    key: "T"
    value {
      type: DT_INT32
    }
  }
  attr {
    key: "_output_shapes"
    value {
      list {
        shape {
          dim {
            size: 1
          }
        }
      }
    }
  }
  attr {
    key: "begin_mask"
    value {
      i: 0
    }
  }
  attr {
    key: "ellipsis_mask"
    value {
      i: 0
    }
  }
  attr {
    key: "end_mask"
    value {
      i: 0
    }
  }
  attr {
    key: "new_axis_mask"
    value {
      i: 0
    }
  }
  attr {
    key: "shrink_axis_mask"
    value {
      i: 0
    }
  }
}
node {
  name: "report_uninitialized_variables_1/boolean_mask/Prod/reduction_indices"
  op: "Const"
  device: "/device:CPU:0"
  attr {
    key: "_output_shapes"
    value {
      list {
        shape {
          dim {
            size: 1
          }
        }
      }
    }
  }
  attr {
    key: "dtype"
    value {
      type: DT_INT32
    }
  }
  attr {
    key: "value"
    value {
      tensor {
        dtype: DT_INT32
        tensor_shape {
          dim {
            size: 1
          }
        }
        int_val: 0
      }
    }
  }
}
node {
  name: "report_uninitialized_variables_1/boolean_mask/Prod"
  op: "Prod"
  input: "report_uninitialized_variables_1/boolean_mask/strided_slice"
  input: "report_uninitialized_variables_1/boolean_mask/Prod/reduction_indices"
  device: "/device:CPU:0"
  attr {
    key: "T"
    value {
      type: DT_INT32
    }
  }
  attr {
    key: "Tidx"
    value {
      type: DT_INT32
    }
  }
  attr {
    key: "_output_shapes"
    value {
      list {
        shape {
        }
      }
    }
  }
  attr {
    key: "keep_dims"
    value {
      b: false
    }
  }
}
node {
  name: "report_uninitialized_variables_1/boolean_mask/Shape_1"
  op: "Const"
  device: "/device:CPU:0"
  attr {
    key: "_output_shapes"
    value {
      list {
        shape {
          dim {
            size: 1
          }
        }
      }
    }
  }
  attr {
    key: "dtype"
    value {
      type: DT_INT32
    }
  }
  attr {
    key: "value"
    value {
      tensor {
        dtype: DT_INT32
        tensor_shape {
          dim {
            size: 1
          }
        }
        int_val: 15
      }
    }
  }
}
node {
  name: "report_uninitialized_variables_1/boolean_mask/strided_slice_1/stack"
  op: "Const"
  device: "/device:CPU:0"
  attr {
    key: "_output_shapes"
    value {
      list {
        shape {
          dim {
            size: 1
          }
        }
      }
    }
  }
  attr {
    key: "dtype"
    value {
      type: DT_INT32
    }
  }
  attr {
    key: "value"
    value {
      tensor {
        dtype: DT_INT32
        tensor_shape {
          dim {
            size: 1
          }
        }
        int_val: 0
      }
    }
  }
}
node {
  name: "report_uninitialized_variables_1/boolean_mask/strided_slice_1/stack_1"
  op: "Const"
  device: "/device:CPU:0"
  attr {
    key: "_output_shapes"
    value {
      list {
        shape {
          dim {
            size: 1
          }
        }
      }
    }
  }
  attr {
    key: "dtype"
    value {
      type: DT_INT32
    }
  }
  attr {
    key: "value"
    value {
      tensor {
        dtype: DT_INT32
        tensor_shape {
          dim {
            size: 1
          }
        }
        int_val: 0
      }
    }
  }
}
node {
  name: "report_uninitialized_variables_1/boolean_mask/strided_slice_1/stack_2"
  op: "Const"
  device: "/device:CPU:0"
  attr {
    key: "_output_shapes"
    value {
      list {
        shape {
          dim {
            size: 1
          }
        }
      }
    }
  }
  attr {
    key: "dtype"
    value {
      type: DT_INT32
    }
  }
  attr {
    key: "value"
    value {
      tensor {
        dtype: DT_INT32
        tensor_shape {
          dim {
            size: 1
          }
        }
        int_val: 1
      }
    }
  }
}
node {
  name: "report_uninitialized_variables_1/boolean_mask/strided_slice_1"
  op: "StridedSlice"
  input: "report_uninitialized_variables_1/boolean_mask/Shape_1"
  input: "report_uninitialized_variables_1/boolean_mask/strided_slice_1/stack"
  input: "report_uninitialized_variables_1/boolean_mask/strided_slice_1/stack_1"
  input: "report_uninitialized_variables_1/boolean_mask/strided_slice_1/stack_2"
  device: "/device:CPU:0"
  attr {
    key: "Index"
    value {
      type: DT_INT32
    }
  }
  attr {
    key: "T"
    value {
      type: DT_INT32
    }
  }
  attr {
    key: "_output_shapes"
    value {
      list {
        shape {
          dim {
          }
        }
      }
    }
  }
  attr {
    key: "begin_mask"
    value {
      i: 1
    }
  }
  attr {
    key: "ellipsis_mask"
    value {
      i: 0
    }
  }
  attr {
    key: "end_mask"
    value {
      i: 0
    }
  }
  attr {
    key: "new_axis_mask"
    value {
      i: 0
    }
  }
  attr {
    key: "shrink_axis_mask"
    value {
      i: 0
    }
  }
}
node {
  name: "report_uninitialized_variables_1/boolean_mask/Shape_2"
  op: "Const"
  device: "/device:CPU:0"
  attr {
    key: "_output_shapes"
    value {
      list {
        shape {
          dim {
            size: 1
          }
        }
      }
    }
  }
  attr {
    key: "dtype"
    value {
      type: DT_INT32
    }
  }
  attr {
    key: "value"
    value {
      tensor {
        dtype: DT_INT32
        tensor_shape {
          dim {
            size: 1
          }
        }
        int_val: 15
      }
    }
  }
}
node {
  name: "report_uninitialized_variables_1/boolean_mask/strided_slice_2/stack"
  op: "Const"
  device: "/device:CPU:0"
  attr {
    key: "_output_shapes"
    value {
      list {
        shape {
          dim {
            size: 1
          }
        }
      }
    }
  }
  attr {
    key: "dtype"
    value {
      type: DT_INT32
    }
  }
  attr {
    key: "value"
    value {
      tensor {
        dtype: DT_INT32
        tensor_shape {
          dim {
            size: 1
          }
        }
        int_val: 1
      }
    }
  }
}
node {
  name: "report_uninitialized_variables_1/boolean_mask/strided_slice_2/stack_1"
  op: "Const"
  device: "/device:CPU:0"
  attr {
    key: "_output_shapes"
    value {
      list {
        shape {
          dim {
            size: 1
          }
        }
      }
    }
  }
  attr {
    key: "dtype"
    value {
      type: DT_INT32
    }
  }
  attr {
    key: "value"
    value {
      tensor {
        dtype: DT_INT32
        tensor_shape {
          dim {
            size: 1
          }
        }
        int_val: 0
      }
    }
  }
}
node {
  name: "report_uninitialized_variables_1/boolean_mask/strided_slice_2/stack_2"
  op: "Const"
  device: "/device:CPU:0"
  attr {
    key: "_output_shapes"
    value {
      list {
        shape {
          dim {
            size: 1
          }
        }
      }
    }
  }
  attr {
    key: "dtype"
    value {
      type: DT_INT32
    }
  }
  attr {
    key: "value"
    value {
      tensor {
        dtype: DT_INT32
        tensor_shape {
          dim {
            size: 1
          }
        }
        int_val: 1
      }
    }
  }
}
node {
  name: "report_uninitialized_variables_1/boolean_mask/strided_slice_2"
  op: "StridedSlice"
  input: "report_uninitialized_variables_1/boolean_mask/Shape_2"
  input: "report_uninitialized_variables_1/boolean_mask/strided_slice_2/stack"
  input: "report_uninitialized_variables_1/boolean_mask/strided_slice_2/stack_1"
  input: "report_uninitialized_variables_1/boolean_mask/strided_slice_2/stack_2"
  device: "/device:CPU:0"
  attr {
    key: "Index"
    value {
      type: DT_INT32
    }
  }
  attr {
    key: "T"
    value {
      type: DT_INT32
    }
  }
  attr {
    key: "_output_shapes"
    value {
      list {
        shape {
          dim {
          }
        }
      }
    }
  }
  attr {
    key: "begin_mask"
    value {
      i: 0
    }
  }
  attr {
    key: "ellipsis_mask"
    value {
      i: 0
    }
  }
  attr {
    key: "end_mask"
    value {
      i: 1
    }
  }
  attr {
    key: "new_axis_mask"
    value {
      i: 0
    }
  }
  attr {
    key: "shrink_axis_mask"
    value {
      i: 0
    }
  }
}
node {
  name: "report_uninitialized_variables_1/boolean_mask/concat/values_1"
  op: "Pack"
  input: "report_uninitialized_variables_1/boolean_mask/Prod"
  device: "/device:CPU:0"
  attr {
    key: "N"
    value {
      i: 1
    }
  }
  attr {
    key: "T"
    value {
      type: DT_INT32
    }
  }
  attr {
    key: "_output_shapes"
    value {
      list {
        shape {
          dim {
            size: 1
          }
        }
      }
    }
  }
  attr {
    key: "axis"
    value {
      i: 0
    }
  }
}
node {
  name: "report_uninitialized_variables_1/boolean_mask/concat/axis"
  op: "Const"
  device: "/device:CPU:0"
  attr {
    key: "_output_shapes"
    value {
      list {
        shape {
        }
      }
    }
  }
  attr {
    key: "dtype"
    value {
      type: DT_INT32
    }
  }
  attr {
    key: "value"
    value {
      tensor {
        dtype: DT_INT32
        tensor_shape {
        }
        int_val: 0
      }
    }
  }
}
node {
  name: "report_uninitialized_variables_1/boolean_mask/concat"
  op: "ConcatV2"
  input: "report_uninitialized_variables_1/boolean_mask/strided_slice_1"
  input: "report_uninitialized_variables_1/boolean_mask/concat/values_1"
  input: "report_uninitialized_variables_1/boolean_mask/strided_slice_2"
  input: "report_uninitialized_variables_1/boolean_mask/concat/axis"
  device: "/device:CPU:0"
  attr {
    key: "N"
    value {
      i: 3
    }
  }
  attr {
    key: "T"
    value {
      type: DT_INT32
    }
  }
  attr {
    key: "Tidx"
    value {
      type: DT_INT32
    }
  }
  attr {
    key: "_output_shapes"
    value {
      list {
        shape {
          dim {
            size: 1
          }
        }
      }
    }
  }
}
node {
  name: "report_uninitialized_variables_1/boolean_mask/Reshape"
  op: "Reshape"
  input: "report_uninitialized_variables_1/Const"
  input: "report_uninitialized_variables_1/boolean_mask/concat"
  device: "/device:CPU:0"
  attr {
    key: "T"
    value {
      type: DT_STRING
    }
  }
  attr {
    key: "Tshape"
    value {
      type: DT_INT32
    }
  }
  attr {
    key: "_output_shapes"
    value {
      list {
        shape {
          dim {
            size: 15
          }
        }
      }
    }
  }
}
node {
  name: "report_uninitialized_variables_1/boolean_mask/Reshape_1/shape"
  op: "Const"
  device: "/device:CPU:0"
  attr {
    key: "_output_shapes"
    value {
      list {
        shape {
          dim {
            size: 1
          }
        }
      }
    }
  }
  attr {
    key: "dtype"
    value {
      type: DT_INT32
    }
  }
  attr {
    key: "value"
    value {
      tensor {
        dtype: DT_INT32
        tensor_shape {
          dim {
            size: 1
          }
        }
        int_val: -1
      }
    }
  }
}
node {
  name: "report_uninitialized_variables_1/boolean_mask/Reshape_1"
  op: "Reshape"
  input: "report_uninitialized_variables_1/LogicalNot"
  input: "report_uninitialized_variables_1/boolean_mask/Reshape_1/shape"
  device: "/device:CPU:0"
  attr {
    key: "T"
    value {
      type: DT_BOOL
    }
  }
  attr {
    key: "Tshape"
    value {
      type: DT_INT32
    }
  }
  attr {
    key: "_output_shapes"
    value {
      list {
        shape {
          dim {
            size: 15
          }
        }
      }
    }
  }
}
node {
  name: "report_uninitialized_variables_1/boolean_mask/Where"
  op: "Where"
  input: "report_uninitialized_variables_1/boolean_mask/Reshape_1"
  device: "/device:CPU:0"
  attr {
    key: "T"
    value {
      type: DT_BOOL
    }
  }
  attr {
    key: "_output_shapes"
    value {
      list {
        shape {
          dim {
            size: -1
          }
          dim {
            size: 1
          }
        }
      }
    }
  }
}
node {
  name: "report_uninitialized_variables_1/boolean_mask/Squeeze"
  op: "Squeeze"
  input: "report_uninitialized_variables_1/boolean_mask/Where"
  device: "/device:CPU:0"
  attr {
    key: "T"
    value {
      type: DT_INT64
    }
  }
  attr {
    key: "_output_shapes"
    value {
      list {
        shape {
          dim {
            size: -1
          }
        }
      }
    }
  }
  attr {
    key: "squeeze_dims"
    value {
      list {
        i: 1
      }
    }
  }
}
node {
  name: "report_uninitialized_variables_1/boolean_mask/GatherV2/axis"
  op: "Const"
  device: "/device:CPU:0"
  attr {
    key: "_output_shapes"
    value {
      list {
        shape {
        }
      }
    }
  }
  attr {
    key: "dtype"
    value {
      type: DT_INT32
    }
  }
  attr {
    key: "value"
    value {
      tensor {
        dtype: DT_INT32
        tensor_shape {
        }
        int_val: 0
      }
    }
  }
}
node {
  name: "report_uninitialized_variables_1/boolean_mask/GatherV2"
  op: "GatherV2"
  input: "report_uninitialized_variables_1/boolean_mask/Reshape"
  input: "report_uninitialized_variables_1/boolean_mask/Squeeze"
  input: "report_uninitialized_variables_1/boolean_mask/GatherV2/axis"
  device: "/device:CPU:0"
  attr {
    key: "Taxis"
    value {
      type: DT_INT32
    }
  }
  attr {
    key: "Tindices"
    value {
      type: DT_INT64
    }
  }
  attr {
    key: "Tparams"
    value {
      type: DT_STRING
    }
  }
  attr {
    key: "_output_shapes"
    value {
      list {
        shape {
          dim {
            size: -1
          }
        }
      }
    }
  }
}
node {
  name: "report_uninitialized_resources_1/Const"
  op: "Const"
  device: "/device:CPU:0"
  attr {
    key: "_output_shapes"
    value {
      list {
        shape {
          dim {
          }
        }
      }
    }
  }
  attr {
    key: "dtype"
    value {
      type: DT_STRING
    }
  }
  attr {
    key: "value"
    value {
      tensor {
        dtype: DT_STRING
        tensor_shape {
          dim {
          }
        }
      }
    }
  }
}
node {
  name: "concat_1/axis"
  op: "Const"
  attr {
    key: "_output_shapes"
    value {
      list {
        shape {
        }
      }
    }
  }
  attr {
    key: "dtype"
    value {
      type: DT_INT32
    }
  }
  attr {
    key: "value"
    value {
      tensor {
        dtype: DT_INT32
        tensor_shape {
        }
        int_val: 0
      }
    }
  }
}
node {
  name: "concat_1"
  op: "ConcatV2"
  input: "report_uninitialized_variables_1/boolean_mask/GatherV2"
  input: "report_uninitialized_resources_1/Const"
  input: "concat_1/axis"
  attr {
    key: "N"
    value {
      i: 2
    }
  }
  attr {
    key: "T"
    value {
      type: DT_STRING
    }
  }
  attr {
    key: "Tidx"
    value {
      type: DT_INT32
    }
  }
  attr {
    key: "_output_shapes"
    value {
      list {
        shape {
          dim {
            size: -1
          }
        }
      }
    }
  }
}
node {
  name: "init_2"
  op: "NoOp"
  input: "^count_2/Assign"
  input: "^total/Assign"
}
node {
  name: "init_all_tables"
  op: "NoOp"
  input: "^string_to_index/hash_table/table_init"
  device: "/device:CPU:0"
}
node {
  name: "init_3"
  op: "NoOp"
}
node {
  name: "group_deps_1/NoOp"
  op: "NoOp"
  input: "^init_2"
  input: "^init_3"
}
node {
  name: "group_deps_1/NoOp_1"
  op: "NoOp"
  input: "^init_all_tables"
  device: "/device:CPU:0"
}
node {
  name: "group_deps_1"
  op: "NoOp"
  input: "^group_deps_1/NoOp"
  input: "^group_deps_1/NoOp_1"
}
node {
  name: "Merge/MergeSummary"
  op: "MergeSummary"
  input: "loss_1"
  attr {
    key: "N"
    value {
      i: 1
    }
  }
  attr {
    key: "_output_shapes"
    value {
      list {
        shape {
        }
      }
    }
  }
}
node {
  name: "save/filename/input"
  op: "Const"
  attr {
    key: "_output_shapes"
    value {
      list {
        shape {
        }
      }
    }
  }
  attr {
    key: "dtype"
    value {
      type: DT_STRING
    }
  }
  attr {
    key: "value"
    value {
      tensor {
        dtype: DT_STRING
        tensor_shape {
        }
        string_val: "model"
      }
    }
  }
}
node {
  name: "save/filename"
  op: "PlaceholderWithDefault"
  input: "save/filename/input"
  attr {
    key: "_output_shapes"
    value {
      list {
        shape {
        }
      }
    }
  }
  attr {
    key: "dtype"
    value {
      type: DT_STRING
    }
  }
  attr {
    key: "shape"
    value {
      shape {
      }
    }
  }
}
node {
  name: "save/Const"
  op: "PlaceholderWithDefault"
  input: "save/filename"
  attr {
    key: "_output_shapes"
    value {
      list {
        shape {
        }
      }
    }
  }
  attr {
    key: "dtype"
    value {
      type: DT_STRING
    }
  }
  attr {
    key: "shape"
    value {
      shape {
      }
    }
  }
}
node {
  name: "save/StringJoin/inputs_1"
  op: "Const"
  attr {
    key: "_output_shapes"
    value {
      list {
        shape {
        }
      }
    }
  }
  attr {
    key: "dtype"
    value {
      type: DT_STRING
    }
  }
  attr {
    key: "value"
    value {
      tensor {
        dtype: DT_STRING
        tensor_shape {
        }
        string_val: "_temp_932a424f985e4e35896f8a31206e59db/part"
      }
    }
  }
}
node {
  name: "save/StringJoin"
  op: "StringJoin"
  input: "save/Const"
  input: "save/StringJoin/inputs_1"
  attr {
    key: "N"
    value {
      i: 2
    }
  }
  attr {
    key: "_output_shapes"
    value {
      list {
        shape {
        }
      }
    }
  }
  attr {
    key: "separator"
    value {
      s: ""
    }
  }
}
node {
  name: "save/num_shards"
  op: "Const"
  attr {
    key: "_output_shapes"
    value {
      list {
        shape {
        }
      }
    }
  }
  attr {
    key: "dtype"
    value {
      type: DT_INT32
    }
  }
  attr {
    key: "value"
    value {
      tensor {
        dtype: DT_INT32
        tensor_shape {
        }
        int_val: 1
      }
    }
  }
}
node {
  name: "save/ShardedFilename/shard"
  op: "Const"
  device: "/device:CPU:0"
  attr {
    key: "_output_shapes"
    value {
      list {
        shape {
        }
      }
    }
  }
  attr {
    key: "dtype"
    value {
      type: DT_INT32
    }
  }
  attr {
    key: "value"
    value {
      tensor {
        dtype: DT_INT32
        tensor_shape {
        }
        int_val: 0
      }
    }
  }
}
node {
  name: "save/ShardedFilename"
  op: "ShardedFilename"
  input: "save/StringJoin"
  input: "save/ShardedFilename/shard"
  input: "save/num_shards"
  device: "/device:CPU:0"
  attr {
    key: "_output_shapes"
    value {
      list {
        shape {
        }
      }
    }
  }
}
node {
  name: "save/SaveV2/tensor_names"
  op: "Const"
  device: "/device:CPU:0"
  attr {
    key: "_output_shapes"
    value {
      list {
        shape {
          dim {
            size: 15
          }
        }
      }
    }
  }
  attr {
    key: "dtype"
    value {
      type: DT_STRING
    }
  }
  attr {
    key: "value"
    value {
      tensor {
        dtype: DT_STRING
        tensor_shape {
          dim {
            size: 15
          }
        }
        string_val: "conv2d/bias"
        string_val: "conv2d/bias/Adam"
        string_val: "conv2d/bias/Adam_1"
        string_val: "conv2d/kernel"
        string_val: "conv2d/kernel/Adam"
        string_val: "conv2d/kernel/Adam_1"
        string_val: "dense_9/bias"
        string_val: "dense_9/bias/Adam"
        string_val: "dense_9/bias/Adam_1"
        string_val: "dense_9/kernel"
        string_val: "dense_9/kernel/Adam"
        string_val: "dense_9/kernel/Adam_1"
        string_val: "global_step"
        string_val: "training/TFOptimizer/beta1_power"
        string_val: "training/TFOptimizer/beta2_power"
      }
    }
  }
}
node {
  name: "save/SaveV2/shape_and_slices"
  op: "Const"
  device: "/device:CPU:0"
  attr {
    key: "_output_shapes"
    value {
      list {
        shape {
          dim {
            size: 15
          }
        }
      }
    }
  }
  attr {
    key: "dtype"
    value {
      type: DT_STRING
    }
  }
  attr {
    key: "value"
    value {
      tensor {
        dtype: DT_STRING
        tensor_shape {
          dim {
            size: 15
          }
        }
        string_val: ""
        string_val: ""
        string_val: ""
        string_val: ""
        string_val: ""
        string_val: ""
        string_val: ""
        string_val: ""
        string_val: ""
        string_val: ""
        string_val: ""
        string_val: ""
        string_val: ""
        string_val: ""
        string_val: ""
      }
    }
  }
}
node {
  name: "save/SaveV2"
  op: "SaveV2"
  input: "save/ShardedFilename"
  input: "save/SaveV2/tensor_names"
  input: "save/SaveV2/shape_and_slices"
  input: "conv2d/bias/Read/ReadVariableOp"
  input: "conv2d/bias/Adam/Read/ReadVariableOp"
  input: "conv2d/bias/Adam_1/Read/ReadVariableOp"
  input: "conv2d/kernel/Read/ReadVariableOp"
  input: "conv2d/kernel/Adam/Read/ReadVariableOp"
  input: "conv2d/kernel/Adam_1/Read/ReadVariableOp"
  input: "dense_9/bias/Read/ReadVariableOp"
  input: "dense_9/bias/Adam/Read/ReadVariableOp"
  input: "dense_9/bias/Adam_1/Read/ReadVariableOp"
  input: "dense_9/kernel/Read/ReadVariableOp"
  input: "dense_9/kernel/Adam/Read/ReadVariableOp"
  input: "dense_9/kernel/Adam_1/Read/ReadVariableOp"
  input: "global_step"
  input: "training/TFOptimizer/beta1_power/Read/ReadVariableOp"
  input: "training/TFOptimizer/beta2_power/Read/ReadVariableOp"
  device: "/device:CPU:0"
  attr {
    key: "dtypes"
    value {
      list {
        type: DT_FLOAT
        type: DT_FLOAT
        type: DT_FLOAT
        type: DT_FLOAT
        type: DT_FLOAT
        type: DT_FLOAT
        type: DT_FLOAT
        type: DT_FLOAT
        type: DT_FLOAT
        type: DT_FLOAT
        type: DT_FLOAT
        type: DT_FLOAT
        type: DT_INT64
        type: DT_FLOAT
        type: DT_FLOAT
      }
    }
  }
}
node {
  name: "save/control_dependency"
  op: "Identity"
  input: "save/ShardedFilename"
  input: "^save/SaveV2"
  device: "/device:CPU:0"
  attr {
    key: "T"
    value {
      type: DT_STRING
    }
  }
  attr {
    key: "_class"
    value {
      list {
        s: "loc:@save/ShardedFilename"
      }
    }
  }
  attr {
    key: "_output_shapes"
    value {
      list {
        shape {
        }
      }
    }
  }
}
node {
  name: "save/MergeV2Checkpoints/checkpoint_prefixes"
  op: "Pack"
  input: "save/ShardedFilename"
  input: "^save/control_dependency"
  device: "/device:CPU:0"
  attr {
    key: "N"
    value {
      i: 1
    }
  }
  attr {
    key: "T"
    value {
      type: DT_STRING
    }
  }
  attr {
    key: "_output_shapes"
    value {
      list {
        shape {
          dim {
            size: 1
          }
        }
      }
    }
  }
  attr {
    key: "axis"
    value {
      i: 0
    }
  }
}
node {
  name: "save/MergeV2Checkpoints"
  op: "MergeV2Checkpoints"
  input: "save/MergeV2Checkpoints/checkpoint_prefixes"
  input: "save/Const"
  device: "/device:CPU:0"
  attr {
    key: "delete_old_dirs"
    value {
      b: true
    }
  }
}
node {
  name: "save/Identity"
  op: "Identity"
  input: "save/Const"
  input: "^save/MergeV2Checkpoints"
  input: "^save/control_dependency"
  device: "/device:CPU:0"
  attr {
    key: "T"
    value {
      type: DT_STRING
    }
  }
  attr {
    key: "_output_shapes"
    value {
      list {
        shape {
        }
      }
    }
  }
}
node {
  name: "save/RestoreV2/tensor_names"
  op: "Const"
  device: "/device:CPU:0"
  attr {
    key: "_output_shapes"
    value {
      list {
        shape {
          dim {
            size: 15
          }
        }
      }
    }
  }
  attr {
    key: "dtype"
    value {
      type: DT_STRING
    }
  }
  attr {
    key: "value"
    value {
      tensor {
        dtype: DT_STRING
        tensor_shape {
          dim {
            size: 15
          }
        }
        string_val: "conv2d/bias"
        string_val: "conv2d/bias/Adam"
        string_val: "conv2d/bias/Adam_1"
        string_val: "conv2d/kernel"
        string_val: "conv2d/kernel/Adam"
        string_val: "conv2d/kernel/Adam_1"
        string_val: "dense_9/bias"
        string_val: "dense_9/bias/Adam"
        string_val: "dense_9/bias/Adam_1"
        string_val: "dense_9/kernel"
        string_val: "dense_9/kernel/Adam"
        string_val: "dense_9/kernel/Adam_1"
        string_val: "global_step"
        string_val: "training/TFOptimizer/beta1_power"
        string_val: "training/TFOptimizer/beta2_power"
      }
    }
  }
}
node {
  name: "save/RestoreV2/shape_and_slices"
  op: "Const"
  device: "/device:CPU:0"
  attr {
    key: "_output_shapes"
    value {
      list {
        shape {
          dim {
            size: 15
          }
        }
      }
    }
  }
  attr {
    key: "dtype"
    value {
      type: DT_STRING
    }
  }
  attr {
    key: "value"
    value {
      tensor {
        dtype: DT_STRING
        tensor_shape {
          dim {
            size: 15
          }
        }
        string_val: ""
        string_val: ""
        string_val: ""
        string_val: ""
        string_val: ""
        string_val: ""
        string_val: ""
        string_val: ""
        string_val: ""
        string_val: ""
        string_val: ""
        string_val: ""
        string_val: ""
        string_val: ""
        string_val: ""
      }
    }
  }
}
node {
  name: "save/RestoreV2"
  op: "RestoreV2"
  input: "save/Const"
  input: "save/RestoreV2/tensor_names"
  input: "save/RestoreV2/shape_and_slices"
  device: "/device:CPU:0"
  attr {
    key: "_output_shapes"
    value {
      list {
        shape {
          unknown_rank: true
        }
        shape {
          unknown_rank: true
        }
        shape {
          unknown_rank: true
        }
        shape {
          unknown_rank: true
        }
        shape {
          unknown_rank: true
        }
        shape {
          unknown_rank: true
        }
        shape {
          unknown_rank: true
        }
        shape {
          unknown_rank: true
        }
        shape {
          unknown_rank: true
        }
        shape {
          unknown_rank: true
        }
        shape {
          unknown_rank: true
        }
        shape {
          unknown_rank: true
        }
        shape {
          unknown_rank: true
        }
        shape {
          unknown_rank: true
        }
        shape {
          unknown_rank: true
        }
      }
    }
  }
  attr {
    key: "dtypes"
    value {
      list {
        type: DT_FLOAT
        type: DT_FLOAT
        type: DT_FLOAT
        type: DT_FLOAT
        type: DT_FLOAT
        type: DT_FLOAT
        type: DT_FLOAT
        type: DT_FLOAT
        type: DT_FLOAT
        type: DT_FLOAT
        type: DT_FLOAT
        type: DT_FLOAT
        type: DT_INT64
        type: DT_FLOAT
        type: DT_FLOAT
      }
    }
  }
}
node {
  name: "save/Identity_1"
  op: "Identity"
  input: "save/RestoreV2"
  attr {
    key: "T"
    value {
      type: DT_FLOAT
    }
  }
  attr {
    key: "_output_shapes"
    value {
      list {
        shape {
          unknown_rank: true
        }
      }
    }
  }
}
node {
  name: "save/AssignVariableOp"
  op: "AssignVariableOp"
  input: "conv2d/bias"
  input: "save/Identity_1"
  attr {
    key: "dtype"
    value {
      type: DT_FLOAT
    }
  }
}
node {
  name: "save/Identity_2"
  op: "Identity"
  input: "save/RestoreV2:1"
  attr {
    key: "T"
    value {
      type: DT_FLOAT
    }
  }
  attr {
    key: "_output_shapes"
    value {
      list {
        shape {
          unknown_rank: true
        }
      }
    }
  }
}
node {
  name: "save/AssignVariableOp_1"
  op: "AssignVariableOp"
  input: "conv2d/bias/Adam"
  input: "save/Identity_2"
  attr {
    key: "dtype"
    value {
      type: DT_FLOAT
    }
  }
}
node {
  name: "save/Identity_3"
  op: "Identity"
  input: "save/RestoreV2:2"
  attr {
    key: "T"
    value {
      type: DT_FLOAT
    }
  }
  attr {
    key: "_output_shapes"
    value {
      list {
        shape {
          unknown_rank: true
        }
      }
    }
  }
}
node {
  name: "save/AssignVariableOp_2"
  op: "AssignVariableOp"
  input: "conv2d/bias/Adam_1"
  input: "save/Identity_3"
  attr {
    key: "dtype"
    value {
      type: DT_FLOAT
    }
  }
}
node {
  name: "save/Identity_4"
  op: "Identity"
  input: "save/RestoreV2:3"
  attr {
    key: "T"
    value {
      type: DT_FLOAT
    }
  }
  attr {
    key: "_output_shapes"
    value {
      list {
        shape {
          unknown_rank: true
        }
      }
    }
  }
}
node {
  name: "save/AssignVariableOp_3"
  op: "AssignVariableOp"
  input: "conv2d/kernel"
  input: "save/Identity_4"
  attr {
    key: "dtype"
    value {
      type: DT_FLOAT
    }
  }
}
node {
  name: "save/Identity_5"
  op: "Identity"
  input: "save/RestoreV2:4"
  attr {
    key: "T"
    value {
      type: DT_FLOAT
    }
  }
  attr {
    key: "_output_shapes"
    value {
      list {
        shape {
          unknown_rank: true
        }
      }
    }
  }
}
node {
  name: "save/AssignVariableOp_4"
  op: "AssignVariableOp"
  input: "conv2d/kernel/Adam"
  input: "save/Identity_5"
  attr {
    key: "dtype"
    value {
      type: DT_FLOAT
    }
  }
}
node {
  name: "save/Identity_6"
  op: "Identity"
  input: "save/RestoreV2:5"
  attr {
    key: "T"
    value {
      type: DT_FLOAT
    }
  }
  attr {
    key: "_output_shapes"
    value {
      list {
        shape {
          unknown_rank: true
        }
      }
    }
  }
}
node {
  name: "save/AssignVariableOp_5"
  op: "AssignVariableOp"
  input: "conv2d/kernel/Adam_1"
  input: "save/Identity_6"
  attr {
    key: "dtype"
    value {
      type: DT_FLOAT
    }
  }
}
node {
  name: "save/Identity_7"
  op: "Identity"
  input: "save/RestoreV2:6"
  attr {
    key: "T"
    value {
      type: DT_FLOAT
    }
  }
  attr {
    key: "_output_shapes"
    value {
      list {
        shape {
          unknown_rank: true
        }
      }
    }
  }
}
node {
  name: "save/AssignVariableOp_6"
  op: "AssignVariableOp"
  input: "dense_9/bias"
  input: "save/Identity_7"
  attr {
    key: "dtype"
    value {
      type: DT_FLOAT
    }
  }
}
node {
  name: "save/Identity_8"
  op: "Identity"
  input: "save/RestoreV2:7"
  attr {
    key: "T"
    value {
      type: DT_FLOAT
    }
  }
  attr {
    key: "_output_shapes"
    value {
      list {
        shape {
          unknown_rank: true
        }
      }
    }
  }
}
node {
  name: "save/AssignVariableOp_7"
  op: "AssignVariableOp"
  input: "dense_9/bias/Adam"
  input: "save/Identity_8"
  attr {
    key: "dtype"
    value {
      type: DT_FLOAT
    }
  }
}
node {
  name: "save/Identity_9"
  op: "Identity"
  input: "save/RestoreV2:8"
  attr {
    key: "T"
    value {
      type: DT_FLOAT
    }
  }
  attr {
    key: "_output_shapes"
    value {
      list {
        shape {
          unknown_rank: true
        }
      }
    }
  }
}
node {
  name: "save/AssignVariableOp_8"
  op: "AssignVariableOp"
  input: "dense_9/bias/Adam_1"
  input: "save/Identity_9"
  attr {
    key: "dtype"
    value {
      type: DT_FLOAT
    }
  }
}
node {
  name: "save/Identity_10"
  op: "Identity"
  input: "save/RestoreV2:9"
  attr {
    key: "T"
    value {
      type: DT_FLOAT
    }
  }
  attr {
    key: "_output_shapes"
    value {
      list {
        shape {
          unknown_rank: true
        }
      }
    }
  }
}
node {
  name: "save/AssignVariableOp_9"
  op: "AssignVariableOp"
  input: "dense_9/kernel"
  input: "save/Identity_10"
  attr {
    key: "dtype"
    value {
      type: DT_FLOAT
    }
  }
}
node {
  name: "save/Identity_11"
  op: "Identity"
  input: "save/RestoreV2:10"
  attr {
    key: "T"
    value {
      type: DT_FLOAT
    }
  }
  attr {
    key: "_output_shapes"
    value {
      list {
        shape {
          unknown_rank: true
        }
      }
    }
  }
}
node {
  name: "save/AssignVariableOp_10"
  op: "AssignVariableOp"
  input: "dense_9/kernel/Adam"
  input: "save/Identity_11"
  attr {
    key: "dtype"
    value {
      type: DT_FLOAT
    }
  }
}
node {
  name: "save/Identity_12"
  op: "Identity"
  input: "save/RestoreV2:11"
  attr {
    key: "T"
    value {
      type: DT_FLOAT
    }
  }
  attr {
    key: "_output_shapes"
    value {
      list {
        shape {
          unknown_rank: true
        }
      }
    }
  }
}
node {
  name: "save/AssignVariableOp_11"
  op: "AssignVariableOp"
  input: "dense_9/kernel/Adam_1"
  input: "save/Identity_12"
  attr {
    key: "dtype"
    value {
      type: DT_FLOAT
    }
  }
}
node {
  name: "save/Assign"
  op: "Assign"
  input: "global_step"
  input: "save/RestoreV2:12"
  attr {
    key: "T"
    value {
      type: DT_INT64
    }
  }
  attr {
    key: "_class"
    value {
      list {
        s: "loc:@global_step"
      }
    }
  }
  attr {
    key: "_output_shapes"
    value {
      list {
        shape {
        }
      }
    }
  }
  attr {
    key: "use_locking"
    value {
      b: true
    }
  }
  attr {
    key: "validate_shape"
    value {
      b: true
    }
  }
}
node {
  name: "save/Identity_13"
  op: "Identity"
  input: "save/RestoreV2:13"
  attr {
    key: "T"
    value {
      type: DT_FLOAT
    }
  }
  attr {
    key: "_output_shapes"
    value {
      list {
        shape {
          unknown_rank: true
        }
      }
    }
  }
}
node {
  name: "save/AssignVariableOp_12"
  op: "AssignVariableOp"
  input: "training/TFOptimizer/beta1_power"
  input: "save/Identity_13"
  attr {
    key: "dtype"
    value {
      type: DT_FLOAT
    }
  }
}
node {
  name: "save/Identity_14"
  op: "Identity"
  input: "save/RestoreV2:14"
  attr {
    key: "T"
    value {
      type: DT_FLOAT
    }
  }
  attr {
    key: "_output_shapes"
    value {
      list {
        shape {
          unknown_rank: true
        }
      }
    }
  }
}
node {
  name: "save/AssignVariableOp_13"
  op: "AssignVariableOp"
  input: "training/TFOptimizer/beta2_power"
  input: "save/Identity_14"
  attr {
    key: "dtype"
    value {
      type: DT_FLOAT
    }
  }
}
node {
  name: "save/restore_shard"
  op: "NoOp"
  input: "^save/Assign"
  input: "^save/AssignVariableOp"
  input: "^save/AssignVariableOp_1"
  input: "^save/AssignVariableOp_10"
  input: "^save/AssignVariableOp_11"
  input: "^save/AssignVariableOp_12"
  input: "^save/AssignVariableOp_13"
  input: "^save/AssignVariableOp_2"
  input: "^save/AssignVariableOp_3"
  input: "^save/AssignVariableOp_4"
  input: "^save/AssignVariableOp_5"
  input: "^save/AssignVariableOp_6"
  input: "^save/AssignVariableOp_7"
  input: "^save/AssignVariableOp_8"
  input: "^save/AssignVariableOp_9"
}
node {
  name: "save/restore_all"
  op: "NoOp"
  input: "^save/restore_shard"
}
library {
  function {
    signature {
      name: "Dataset_map_read_and_preprocess_226"
      input_arg {
        name: "arg0"
        type: DT_STRING
      }
      input_arg {
        name: "arg1"
        type: DT_STRING
      }
      input_arg {
        name: "arg2"
        type: DT_STRING
      }
      input_arg {
        name: "arg3"
        type: DT_STRING
      }
      input_arg {
        name: "string_to_index_lookup_hash_table_lookup_placeholder"
        type: DT_RESOURCE
      }
      input_arg {
        name: "string_to_index_lookup_hash_table_lookup_placeholder_1"
        type: DT_INT64
      }
      output_arg {
        name: "mul"
        type: DT_FLOAT
      }
      output_arg {
        name: "one_hot"
        type: DT_FLOAT
      }
      description: "Wrapper for passing nested structures to and from tf.data functions."
      is_stateful: true
    }
    node_def {
      name: "DecodeJpeg"
      op: "DecodeJpeg"
      input: "arg0"
      device: "/device:CPU:0"
      attr {
        key: "acceptable_fraction"
        value {
          f: 1.0
        }
      }
      attr {
        key: "channels"
        value {
          i: 3
        }
      }
      attr {
        key: "dct_method"
        value {
          s: ""
        }
      }
      attr {
        key: "fancy_upscaling"
        value {
          b: true
        }
      }
      attr {
        key: "ratio"
        value {
          i: 1
        }
      }
      attr {
        key: "try_recover_truncated"
        value {
          b: false
        }
      }
    }
    node_def {
      name: "convert_image/Cast"
      op: "Cast"
      input: "DecodeJpeg:image:0"
      device: "/device:CPU:0"
      attr {
        key: "DstT"
        value {
          type: DT_FLOAT
        }
      }
      attr {
        key: "SrcT"
        value {
          type: DT_UINT8
        }
      }
      attr {
        key: "Truncate"
        value {
          b: false
        }
      }
    }
    node_def {
      name: "convert_image/y"
      op: "Const"
      device: "/device:CPU:0"
      attr {
        key: "dtype"
        value {
          type: DT_FLOAT
        }
      }
      attr {
        key: "value"
        value {
          tensor {
            dtype: DT_FLOAT
            tensor_shape {
            }
            float_val: 0.003921568859368563
          }
        }
      }
    }
    node_def {
      name: "convert_image"
      op: "Mul"
      input: "convert_image/Cast:y:0"
      input: "convert_image/y:output:0"
      device: "/device:CPU:0"
      attr {
        key: "T"
        value {
          type: DT_FLOAT
        }
      }
    }
    node_def {
      name: "ExpandDims/dim"
      op: "Const"
      device: "/device:CPU:0"
      attr {
        key: "dtype"
        value {
          type: DT_INT32
        }
      }
      attr {
        key: "value"
        value {
          tensor {
            dtype: DT_INT32
            tensor_shape {
            }
            int_val: 0
          }
        }
      }
    }
    node_def {
      name: "ExpandDims"
      op: "ExpandDims"
      input: "convert_image:z:0"
      input: "ExpandDims/dim:output:0"
      device: "/device:CPU:0"
      attr {
        key: "T"
        value {
          type: DT_FLOAT
        }
      }
      attr {
        key: "Tdim"
        value {
          type: DT_INT32
        }
      }
    }
    node_def {
      name: "ResizeBilinear/size"
      op: "Const"
      device: "/device:CPU:0"
      attr {
        key: "dtype"
        value {
          type: DT_INT32
        }
      }
      attr {
        key: "value"
        value {
          tensor {
            dtype: DT_INT32
            tensor_shape {
              dim {
                size: 2
              }
            }
            tensor_content: "\340\000\000\000\340\000\000\000"
          }
        }
      }
    }
    node_def {
      name: "ResizeBilinear"
      op: "ResizeBilinear"
      input: "ExpandDims:output:0"
      input: "ResizeBilinear/size:output:0"
      device: "/device:CPU:0"
      attr {
        key: "T"
        value {
          type: DT_FLOAT
        }
      }
      attr {
        key: "align_corners"
        value {
          b: false
        }
      }
    }
    node_def {
      name: "Squeeze"
      op: "Squeeze"
      input: "ResizeBilinear:resized_images:0"
      device: "/device:CPU:0"
      attr {
        key: "T"
        value {
          type: DT_FLOAT
        }
      }
      attr {
        key: "squeeze_dims"
        value {
          list {
            i: 0
          }
        }
      }
    }
    node_def {
      name: "Sub/y"
      op: "Const"
      device: "/device:CPU:0"
      attr {
        key: "dtype"
        value {
          type: DT_FLOAT
        }
      }
      attr {
        key: "value"
        value {
          tensor {
            dtype: DT_FLOAT
            tensor_shape {
            }
            float_val: 0.5
          }
        }
      }
    }
    node_def {
      name: "Sub"
      op: "Sub"
      input: "Squeeze:output:0"
      input: "Sub/y:output:0"
      device: "/device:CPU:0"
      attr {
        key: "T"
        value {
          type: DT_FLOAT
        }
      }
    }
    node_def {
      name: "Mul/y"
      op: "Const"
      device: "/device:CPU:0"
      attr {
        key: "dtype"
        value {
          type: DT_FLOAT
        }
      }
      attr {
        key: "value"
        value {
          tensor {
            dtype: DT_FLOAT
            tensor_shape {
            }
            float_val: 2.0
          }
        }
      }
    }
    node_def {
      name: "Mul"
      op: "Mul"
      input: "Sub:z:0"
      input: "Mul/y:output:0"
      device: "/device:CPU:0"
      attr {
        key: "T"
        value {
          type: DT_FLOAT
        }
      }
    }
    node_def {
      name: "string_to_index_Lookup/hash_bucket"
      op: "StringToHashBucketFast"
      input: "arg1"
      device: "/device:CPU:0"
      attr {
        key: "num_buckets"
        value {
          i: 1
        }
      }
    }
    node_def {
      name: "string_to_index_Lookup/hash_table_Lookup"
      op: "LookupTableFindV2"
      input: "string_to_index_lookup_hash_table_lookup_placeholder"
      input: "arg1"
      input: "string_to_index_lookup_hash_table_lookup_placeholder_1"
      device: "/device:CPU:0"
      attr {
        key: "Tin"
        value {
          type: DT_STRING
        }
      }
      attr {
        key: "Tout"
        value {
          type: DT_INT64
        }
      }
    }
    node_def {
      name: "string_to_index_Lookup/hash_table_Size"
      op: "LookupTableSizeV2"
      input: "string_to_index_lookup_hash_table_lookup_placeholder"
      device: "/device:CPU:0"
    }
    node_def {
      name: "string_to_index_Lookup/Add"
      op: "Add"
      input: "string_to_index_Lookup/hash_bucket:output:0"
      input: "string_to_index_Lookup/hash_table_Size:size:0"
      device: "/device:CPU:0"
      attr {
        key: "T"
        value {
          type: DT_INT64
        }
      }
    }
    node_def {
      name: "string_to_index_Lookup/NotEqual"
      op: "NotEqual"
      input: "string_to_index_Lookup/hash_table_Lookup:values:0"
      input: "string_to_index_lookup_hash_table_lookup_placeholder_1"
      device: "/device:CPU:0"
      attr {
        key: "T"
        value {
          type: DT_INT64
        }
      }
    }
    node_def {
      name: "string_to_index_Lookup"
      op: "Select"
      input: "string_to_index_Lookup/NotEqual:z:0"
      input: "string_to_index_Lookup/hash_table_Lookup:values:0"
      input: "string_to_index_Lookup/Add:z:0"
      device: "/device:CPU:0"
      attr {
        key: "T"
        value {
          type: DT_INT64
        }
      }
    }
    node_def {
      name: "one_hot/on_value"
      op: "Const"
      device: "/device:CPU:0"
      attr {
        key: "dtype"
        value {
          type: DT_FLOAT
        }
      }
      attr {
        key: "value"
        value {
          tensor {
            dtype: DT_FLOAT
            tensor_shape {
            }
            float_val: 1.0
          }
        }
      }
    }
    node_def {
      name: "one_hot/off_value"
      op: "Const"
      device: "/device:CPU:0"
      attr {
        key: "dtype"
        value {
          type: DT_FLOAT
        }
      }
      attr {
        key: "value"
        value {
          tensor {
            dtype: DT_FLOAT
            tensor_shape {
            }
            float_val: 0.0
          }
        }
      }
    }
    node_def {
      name: "one_hot/depth"
      op: "Const"
      device: "/device:CPU:0"
      attr {
        key: "dtype"
        value {
          type: DT_INT32
        }
      }
      attr {
        key: "value"
        value {
          tensor {
            dtype: DT_INT32
            tensor_shape {
            }
            int_val: 50
          }
        }
      }
    }
    node_def {
      name: "one_hot_0"
      op: "OneHot"
      input: "string_to_index_Lookup:output:0"
      input: "one_hot/depth:output:0"
      input: "one_hot/on_value:output:0"
      input: "one_hot/off_value:output:0"
      device: "/device:CPU:0"
      attr {
        key: "T"
        value {
          type: DT_FLOAT
        }
      }
      attr {
        key: "TI"
        value {
          type: DT_INT64
        }
      }
      attr {
        key: "axis"
        value {
          i: -1
        }
      }
    }
    ret {
      key: "mul"
      value: "Mul:z:0"
    }
    ret {
      key: "one_hot"
      value: "one_hot_0:output:0"
    }
  }
  function {
    signature {
      name: "Dataset_map_decode_csv_214"
      input_arg {
        name: "arg0"
        type: DT_STRING
      }
      output_arg {
        name: "readfile"
        type: DT_STRING
      }
      output_arg {
        name: "decodecsv"
        type: DT_STRING
      }
      output_arg {
        name: "decodecsv_0"
        type: DT_STRING
      }
      output_arg {
        name: "decodecsv_1"
        type: DT_STRING
      }
      description: "Wrapper for passing nested structures to and from tf.data functions."
    }
    node_def {
      name: "DecodeCSV/record_defaults_0"
      op: "Const"
      device: "/device:CPU:0"
      attr {
        key: "dtype"
        value {
          type: DT_STRING
        }
      }
      attr {
        key: "value"
        value {
          tensor {
            dtype: DT_STRING
            tensor_shape {
              dim {
                size: 1
              }
            }
            string_val: ""
          }
        }
      }
    }
    node_def {
      name: "DecodeCSV/record_defaults_1"
      op: "Const"
      device: "/device:CPU:0"
      attr {
        key: "dtype"
        value {
          type: DT_STRING
        }
      }
      attr {
        key: "value"
        value {
          tensor {
            dtype: DT_STRING
            tensor_shape {
              dim {
                size: 1
              }
            }
            string_val: ""
          }
        }
      }
    }
    node_def {
      name: "DecodeCSV/record_defaults_2"
      op: "Const"
      device: "/device:CPU:0"
      attr {
        key: "dtype"
        value {
          type: DT_STRING
        }
      }
      attr {
        key: "value"
        value {
          tensor {
            dtype: DT_STRING
            tensor_shape {
              dim {
                size: 1
              }
            }
            string_val: ""
          }
        }
      }
    }
    node_def {
      name: "DecodeCSV/record_defaults_3"
      op: "Const"
      device: "/device:CPU:0"
      attr {
        key: "dtype"
        value {
          type: DT_STRING
        }
      }
      attr {
        key: "value"
        value {
          tensor {
            dtype: DT_STRING
            tensor_shape {
              dim {
                size: 1
              }
            }
            string_val: ""
          }
        }
      }
    }
    node_def {
      name: "DecodeCSV"
      op: "DecodeCSV"
      input: "arg0"
      input: "DecodeCSV/record_defaults_0:output:0"
      input: "DecodeCSV/record_defaults_1:output:0"
      input: "DecodeCSV/record_defaults_2:output:0"
      input: "DecodeCSV/record_defaults_3:output:0"
      device: "/device:CPU:0"
      attr {
        key: "OUT_TYPE"
        value {
          list {
            type: DT_STRING
            type: DT_STRING
            type: DT_STRING
            type: DT_STRING
          }
        }
      }
      attr {
        key: "field_delim"
        value {
          s: ","
        }
      }
      attr {
        key: "na_value"
        value {
          s: ""
        }
      }
      attr {
        key: "select_cols"
        value {
          list {
          }
        }
      }
      attr {
        key: "use_quote_delim"
        value {
          b: true
        }
      }
    }
    node_def {
      name: "ReadFile"
      op: "ReadFile"
      input: "DecodeCSV:output:1"
      device: "/device:CPU:0"
    }
    ret {
      key: "decodecsv"
      value: "DecodeCSV:output:0"
    }
    ret {
      key: "decodecsv_0"
      value: "DecodeCSV:output:2"
    }
    ret {
      key: "decodecsv_1"
      value: "DecodeCSV:output:3"
    }
    ret {
      key: "readfile"
      value: "ReadFile:contents:0"
    }
  }
}
versions {
  producer: 27
  min_consumer: 12
}
